Parameter/bottleneck2_layer/weights/1_conv2d.npy (npy, 38528 bytes, 1 tensors)

array f4 [1, 1, 1, 40, 240]
0.085748665 -0.12750414 -0.047459096 0.08553407 0.045824856 -0.13792162 -0.015401858 0.118412554
-0.09193319 0.03195799 0.070326105 -0.10132819 -0.090743445 0.122575246 0.08481321 0.11933839
0.089634985 -0.04579696 -0.017509032 0.13272576 0.11950103 -0.10596985 0.01603989 0.050351746
0.12476878 0.006815455 0.012335177 -0.062082406 -0.13849193 0.06892242 0.0071755927 -0.07201384
0.106305435 0.03635915 0.13964276 0.066630304 -0.116912104 0.03208094 -0.0044726646 0.1023777
-0.00542629 0.06458947 -0.11109971 -0.009126754 -0.027176196 0.055148713 0.09843425 -0.070987165
0.14541292 0.03318884 -0.017155485 0.013358494 0.068806745 -0.08637062 0.035253663 -0.059757847
0.09680431 0.13025287 -0.012953192 -0.029184742 0.08447111 0.118703246 -0.06920907 0.052600592
-0.105567575 -0.04020915 0.009941262 -0.11565884 -0.046396684 -0.11385575 0.10559854 -0.07128003
0.13558915 -0.13649146 -0.08277223 -0.09633928 0.017438117 -0.012353376 -0.047893934 0.13131718
-0.0065645943 -0.122259 0.14226899 0.13147551 0.06750442 0.100800514 -0.0207252 0.084967084
-0.034567975 -0.0016040461 -0.05120126 0.05179632 0.10954087 0.07353683 0.12954454 -0.02594302
-0.06873757 -0.046426646 0.12314528 0.049714565 0.11008637 -0.09116153 -0.015295668 -0.10962205
0.05172929 0.03964984 0.0013237541 -0.08548351 -0.12629749 0.09474073 0.043047745 0.05737071
-0.13433553 -0.13668 -0.13572285 -0.045637023 0.09264089 0.1269598 -0.08209712 -0.13353139
0.09895917 -0.1378415 0.0042630476 0.039495863 -0.10936986 0.117345765 -0.067938104 -0.08679442
-0.021553773 -0.07631942 0.10064974 0.011911307 0.1454983 0.061951626 0.043176215 -0.09683429
-0.042962797 0.10809385 0.13841741 -0.090189815 0.02639987 -0.08101265 0.11278468 -0.07369896
0.047268916 -0.0018540586 0.1124125 -0.043191843 -0.0034248084 -0.051240284 -0.06392458 0.14477044
-0.07264277 0.14353558 -0.12495422 -0.1038882 0.09715252 -0.1224251 -0.082258135 -0.026294306
-0.09591624 0.008575677 0.058826923 -0.027853666 0.06160925 0.094939396 0.039209303 0.11613043
-0.056028586 0.07374916 -0.08424591 0.11555835 -0.07370749 -0.10571823 0.0788403 0.099163905
-0.0760661 -0.03215631 -0.10155959 -0.015985835 -0.11521101 0.0018846533 0.16615161 0.103655435
-0.019592974 -0.03543499 0.07734754 0.1431641 -0.0708446 0.09957594 -0.10486994 -0.09297752
-0.10593237 -0.023967726 0.058225952 -0.05819362 -0.049189527 0.14237332 -0.06940535 0.007192629
0.048144735 0.100693524 -0.08156183 0.089380406 0.08285744 -0.08926127 0.14073348 0.0378411
-0.025080474 0.034792185 -0.031496115 -0.053094827 -0.02375545 0.10687066 0.042771585 0.083288416
-0.0134747485 -0.011539743 0.15090616 0.022189818 0.038831957 -0.06514106 0.015871353 -0.0056081237
0.06384923 0.039669897 0.116806686 0.12117444 -0.083475396 -0.019102097 -0.05027679 -0.10076576
-0.106486395 -0.09320226 -0.05049263 -0.049536996 -0.102040425 0.023609767 0.11840693 -0.0652691
0.10150228 -0.12893838 -0.046054285 0.14314017 0.044914432 0.13707186 0.068104796 0.10248916
-0.059698384 -0.1184092 -0.03707862 0.07456457 0.018678233 -0.05310236 -0.0017457923 0.104429714
00000000: ff9c af3d 7290 02be 7864 42bd 7d2c af3d
00000010: d8b2 3b3d 533b 0dbe 1358 7cbc 4882 f23d
00000020: 7847 bcbd 62e6 023d 2207 903d 2785 cfbd
00000030: b3d7 b9bd bb08 fb3d 8cb2 ad3d b067 f43d
00000040: 8c92 b73d 9895 3bbd 1a6f 8fbc 43e9 073e
00000050: f5bc f43d b906 d9bd 1666 833c a23d 4e3d
00000060: c686 ff3d 2e54 df3b 7b19 4a3c 1f4a 7ebd
00000070: d4d0 0dbe 3327 8d3d 3c21 eb3b fe7b 93bd
00000080: aab6 d93d 55ed 143d 83fe 0e3e 7875 883d
00000090: 9d6f efbd 4e67 033d 6e8f 92bb 66ab d13d
000000a0: 05cf b1bb 7c47 843d 3f88 e3bd 6188 15bc
000000b0: 9da0 debc 9ee3 613d e597 c93d b861 91bd
000000c0: 20e7 143e 05f1 073d a989 8cbc 96dd 5a3c
000000d0: 8dea 8c3d 14e3 b0bd 2566 103d a5c4 74bd
000000e0: 5741 c63d 0261 053e a039 54bc d714 efbc
000000f0: 30ff ac3d b01a f33d 7cbd 8dbd b873 573d
00000100: d033 d8bd 5ab2 24bd ade0 223c 8bde ecbd
00000110: 730a 3ebd 342d e9bd 0c44 d83d 44fb 91bd
00000120: e2d7 0a3e 6bc4 0bbe 7d84 a9bd 874d c5bd
00000130: 62da 8e3c d065 4abc 6e2c 44bd 0378 063e
00000140: cf1b d7bb ed62 fabd f6ae 113e 84a1 063e
00000150: c23f 8a3d 8070 ce3d e5c7 a9bc 3903 ae3d
00000160: 2697 0dbd db3e d2ba 6ab8 51bd 6128 543d
00000170: f756 e03d 7a9a 963d 53a7 043e 7586 d4bc
00000180: 48c6 8cbd de29 3ebd 9833 fc3d 80a1 4b3d
00000190: f674 e13d e5b2 babd ae9a 7abc 8681 e0bd
000001a0: 18e2 533d df67 223d d181 ad3a fa11 afbd
000001b0: 2154 01be 6e07 c23d d552 303d 8dfd 6a3d
000001c0: 418f 09be d8f5 0bbe eefa 0abe e3ed 3abd
000001d0: 82ba bd3d c001 023e 8922 a8bd 74bc 08be
000001e0: 1bab ca3d 5226 0dbe 09b1 8b3b 6ac6 213d
000001f0: 4efd dfbd fa52 f03d 2223 8bbd 46c1 b1bd
00000200: 8a91 b0bc 5b4d 9cbd 7321 ce3d a527 433c
00000210: 82fd 143e fdc0 7d3d 8bd9 303d 0e51 c6bd
00000220: c2f9 2fbd 4f60 dd3d 4bbd 0d3e 70b5 b8bd
00000230: 8a44 d83c f6e9 a5bd a8fb e63d 7bef 96bd
00000240: 0d9d 413d e203 f3ba 8638 e63d eee9 30bd
00000250: c072 60bb 55e1 51bd e4ea 82bd b43e 143e
00000260: bcc5 94bd fefa 123e 00e8 ffbd 56c3 d4bd
00000270: e7f7 c63d 03ba fabd f476 a8bd 2867 d7bc
00000280: bc6f c4bd ff80 0c3c 80f4 703d 5f2d e4bc
00000290: fb59 7c3d 966f c23d ef99 203d cad5 ed3d
000002a0: 3b7e 65bd cd09 973d 1f89 acbd dba9 ec3d
000002b0: f4f3 96bd cd82 d8bd 0677 a13d 7216 cb3d
000002c0: 8bc8 9bbd 56b6 03bd 79fe cfbd baf4 82bc
000002d0: c0f3 ebbd 7906 f73a a623 2a3e 4d49 d43d
000002e0: 7281 a0bc 4824 11bd 6368 9e3d 9c99 123e
000002f0: f916 91bd 78ee cb3d 0dc6 d6bd ff6a bebd
00000300: 12f3 d8bd f757 c4bc 567e 6e3d 6f5c 6ebd
00000310: f57a 49bd 50ca 113e 6424 8ebd 25b0 eb3b
00000320: 6a33 453d 6838 ce3d e409 a7bd 130d b73d
00000330: 29b1 a93d 9dce b6bd 701c 103e 45ff 1a3d
00000340: 9175 cdbc 4082 0e3d 1202 01bd f679 59bd
00000350: ca9a c2bc 01df da3d 4231 2f3d 1e93 aa3d
00000360: 31c5 5cbc 3111 3dbc 2587 1a3e 6cc7 b53c
00000370: 420e 1f3d ad68 85bd a404 823c 5ac4 b7bb
00000380: 63c3 823d e77c 223d 5838 ef3d 4e2a f83d
00000390: 26f5 aabd 007c 9cbc 09ef 4dbd 475e cebd
000003a0: 8a15 dabd d4e0 bebd 5cd1 4ebd 4ee7 4abd
000003b0: 92fa d0bd 4569 c13c 557f f23d ceab 85bd
000003c0: 6de0 cf3d 6c08 04be 6ba3 3cbd 5693 123e
000003d0: 32f8 373d 915c 0c3e 877a 8b3d d6e5 d13d
000003e0: 4b86 74bd 8680 f2bd c0df 17bd 4fb5 983d
000003f0: 1803 993c dc81 59bd 12d3 e4ba 3fdf d53d
