Parameter/bottleneck2_layer/weights/4_depthwise.npy (npy, 8768 bytes, 1 tensors)

array f4 [1, 3, 3, 240, 1]
-0.040666472 0.05294269 -0.02920399 0.04876179 0.035477087 0.03064293 0.022250827 -0.035407957
0.01743643 -0.049071576 -0.036855575 -0.091361105 -0.051653087 -0.043812208 0.0014842823 -0.0038808985
0.025966937 -0.0181065 -0.006920996 0.044636965 -0.011636006 -0.047011916 0.029029295 -0.01845355
0.038385026 0.0049843383 0.036494557 0.034062978 -0.0054131406 0.03729663 -0.021666719 -0.04393983
0.024132214 -0.061081823 0.024150684 0.0065175453 -0.0144280875 -0.0016057815 -0.0363712 0.04766574
0.054935727 0.033900395 -0.053195834 -0.0070000724 0.015034754 -0.036209933 -0.035791993 -0.02447236
-0.035913747 0.065334626 0.028757714 -0.034857985 0.048816774 -0.03596337 0.042296004 -0.023090359
0.041854933 -0.080117986 -0.017217575 -0.015235778 -0.02849656 -0.03817356 0.01782487 -0.039555587
0.0050845454 -0.0092628375 0.008118276 -0.012350224 -0.0024368744 0.021887476 -0.031147752 -0.02896753
0.03907146 -0.033933528 0.02635903 0.023641847 0.03789296 0.018625932 -0.043916747 0.045750648
0.034983132 -0.026854139 -0.023733277 0.03861616 0.0035994416 -0.026001975 -0.050971802 -0.043034125
0.018785987 0.046163823 -0.03209217 -0.058154937 -0.0010557747 0.00035179418 -0.04102408 0.055706102
0.026396926 0.015929827 -0.0024884343 0.04728905 -0.049583904 0.037509 0.056241743 -0.013742765
-0.006915009 0.03717055 -0.07796423 -0.018099178 0.042864095 -0.0005244091 0.046217963 -0.04100072
-0.047092393 0.019415656 -0.02599919 0.023164824 0.0015253761 0.023428325 -0.017910698 0.05952316
0.04627105 -0.040620554 -0.062285304 -0.052310705 0.053103276 -0.018586624 -0.005049008 -0.04592096
0.07387508 0.0014184788 -0.033374507 0.02388963 0.0047424026 0.00013844296 -0.016849801 -0.020950096
-0.028646987 -0.06448163 -0.0180482 0.0030169412 0.009505916 0.03695573 0.035717014 0.010338568
-0.026371779 -0.037139863 -0.048379578 -0.06762873 0.031378027 0.027662218 -0.029233258 -0.008286875
-0.034484208 0.032644417 0.016892986 -0.049328793 -0.010120915 0.03380311 -0.009090389 0.012845153
0.012213571 0.0074291183 -0.0054118503 0.054280188 0.05655229 0.041224174 0.007337483 -0.023963979
-0.048277978 0.027839448 -0.04647369 -0.05441158 0.03834016 0.032138884 0.01883661 -0.029227573
0.05853982 -0.019441124 -0.013884434 -0.0043339585 -0.03816366 -0.022557171 -0.049154785 -0.03943211
0.012351579 0.028975103 -0.043486975 -0.04276249 0.041697077 -0.03912262 0.080159344 -0.040154863
-0.021245036 0.043876484 -0.080759905 -0.03986282 -0.007337169 -0.052357886 0.032967106 -0.036114182
0.0183281 0.027576309 -0.040490307 0.024647458 -0.04192186 -0.04422855 -0.03756775 0.044900645
-0.021649854 0.033977598 -0.0375753 -0.0028689888 0.027256982 -0.0024652379 0.00078065693 0.041949917
0.04083024 0.041996017 0.029879292 0.06603845 -0.04880363 0.023942903 0.05636336 0.021503711
-0.01768689 0.0029662112 0.053009104 -0.0030410998 0.013721151 0.081322744 -0.051860083 -0.004827505
0.055037167 0.0012698123 -0.043646112 -0.023603369 -0.055421993 -0.022260519 0.01886042 -0.020437473
-0.015613511 0.03717685 0.04129464 0.0013288865 0.050545372 0.006332282 -0.0136423195 0.0127540445
0.059810866 -0.047680877 -0.010005047 -0.13099489 0.035349615 0.044207416 0.05940171 -0.04635929
00000000: e391 26bd 6fda 583d 353d efbc 71ba 473d
00000010: 6c50 113d e206 fb3c 5e47 b63c ef07 11bd
00000020: d8d6 8e3c 47ff 48bd dff5 16bd 881b bbbd
00000030: 3092 53bd 6e74 33bd 408c c23a ac56 7ebb
00000040: 9db8 d43c 1554 94bc 86c9 e2bb 40d5 363d
00000050: f2a4 3ebc 918f 40bd d8ce ed3c e62b 97bc
00000060: 9e39 1d3d a953 a33b 517b 153d 9f85 0b3d
00000070: b760 b1bb 5ac4 183d 677e b1bc 40fa 33bd
00000080: ecb0 c53c ef30 7abd a8d7 c53c 2291 d53b
00000090: c963 6cbc 1679 d2ba f8f9 14bd 273d 433d
000000a0: 4904 613d 24db 0a3d e0e3 59bd dd60 e5bb
000000b0: 5454 763c de50 14bd a09a 12bd 427a c8bc
000000c0: 4b1a 13bd 29ce 853d 4c95 eb3c 3fc7 0ebd
000000d0: 19f4 473d 544e 13bd 933e 2d3d fe27 bdbc
000000e0: 1470 2b3d e614 a4bd df0b 8dbc 7c9f 79bc
000000f0: 9e71 e9bc e15b 1cbd 7605 923c 0a05 22bd
00000100: 429c a63b 28c3 17bc 8402 053c 9858 4abc
00000110: f8b3 1fbb 5d4d b33c 9229 ffbc 504d edbc
00000120: 6509 203d e2fd 0abd e4ee d73c 8cac c13c
00000130: a635 1b3d 6995 983c 0ce2 33bd 0865 3b3d
00000140: 794a 0f3d 36fd dbbc 4a6c c2bc fb2b 1e3d
00000150: 9ce4 6b3b 1802 d5bc cfc7 50bd 8d44 30bd
00000160: 12e5 993c 4716 3d3d 1473 03bd df33 6ebd
00000170: ec61 8aba 0471 b839 de08 28bd 152c 643d
00000180: 5e3e d83c 457f 823c 0015 23bb 2ab2 413d
00000190: 7e18 4bbd 0aa3 193d be5d 663d 5629 61bc
000001a0: 4d97 e2bb 2640 183d b6ab 9fbd ba44 94bc
000001b0: 4392 2f3d 8078 09ba 0c4f 3d3d 5ff0 27bd
000001c0: f4e3 40bd 950d 9f3c 41fc d4bc 28c4 bd3c
000001d0: 21ef c73a c2ec bf3c 75b9 92bc 8fce 733d
000001e0: b686 3d3d bd61 26bd e01e 7fbd c043 56bd
000001f0: d282 593d fa42 98bc 2672 a5bb 9e17 3cbd
00000200: d14b 973d 40ec b93a b5b3 08bd 2fb4 c33c
00000210: 2866 9b3b 002b 1139 9808 8abc 899f abbc
00000220: 16ad eabc f20e 84bd d2d9 93bc e0b7 453b
00000230: b4be 1b3c e45e 173d 014c 123d 1963 293c
00000240: a109 d8bc f81f 18bd aa29 46bd ee80 8abd
00000250: 3f86 003d e09b e23c 967a efbc acc5 07bc
00000260: 503f 0dbd 27b6 053d 2963 8a3c fd0c 4abd
00000270: 32d2 25bc 2175 0a3d dbef 14bc 7a74 523c
00000280: 6e1b 483c f66f f33b e455 b1bb e754 5e3d
00000290: 60a3 673d aeda 283d 456f f03b 1b50 c4bc
000002a0: 21bf 45bd 8e0f e43c 325b 3ebd adde 5ebd
000002b0: 920a 1d3d 10a4 033d 3c4f 9a3c aa6e efbc
000002c0: 73c7 6f3d fe42 9fbc 897b 63bc e103 8ebb
000002d0: 7f51 1cbd d1c9 b8bc 8756 49bd 9083 21bd
000002e0: 475e 4a3c 325d ed3c 661f 32bd b927 2fbd
000002f0: 8eca 2a3d 0a3f 20bd 952a a43d 6d79 24bd
00000300: 120a aebc d4b7 333d 7365 a5bd 3247 23bd
00000310: a26c f0bb 3975 56bd 8408 073d 77ec 13bd
00000320: d024 963c b6e7 e13c 2ad9 25bd 77e9 c93c
00000330: 42b6 2bbd ff28 35bd a4e0 19bd bde9 373d
00000340: 095b b1bc 182c 0b3d 8fe8 19bd a505 3cbb
00000350: 094a df3c d48f 21bb 00a5 4c3a add3 2b3d
00000360: 9c3d 273d 0404 2c3d 6bc5 f43c 2b3f 873d
00000370: 51e6 47bd e823 c43c 44dd 663d 8d28 b03c
00000380: 19e4 90bc c464 423b 1320 593d 304d 47bb
00000390: aece 603c 8a8c a63d 3d6b 54bd 0c30 9ebb
000003a0: a76e 613d d56f a63a 44c6 32bd da5b c1bc
000003b0: 2c02 63bd b15b b6bc 2b81 9a3c 7d6c a7bc
000003c0: d0cf 7fbc c146 183d 9224 293d 082e ae3a
000003d0: aa08 4f3d 087f cf3b 0984 5fbc 57f6 503c
000003e0: 3dfc 743d 064d 43bd 35ec 23bc 8623 06be
000003f0: c2ca 103d d612 353d 354f 733d 3de3 3dbd
