Parameter/bottleneck2_layer/weights/7_conv2d.npy (npy, 38528 bytes, 1 tensors)

array f4 [1, 1, 1, 240, 40]
0	0x3d8bfe1b	0.06835576
1	0x3d87e3d9	0.06635255
2	0x3e10d15b	0.14142363
3	0x3d118b77	0.035533395
4	0xbdcabcfd	-0.09899328
5	0xbdc67cdc	-0.09691784
6	0xbd8178ab	-0.06321844
7	0x3e0e19da	0.13877049
8	0xbde22be2	-0.11043526
9	0x3da50481	0.080575
10	0x3d6f9296	0.058489405
11	0x3dcc1b65	0.099661626
12	0xbe105135	-0.14093478
13	0x3d34c300	0.04413128
14	0xbd8650d0	-0.065583825
15	0x3db59e19	0.08868045
16	0xbdd4d0c3	-0.10391381
17	0xbdf30762	-0.118666425
18	0xbd0592de	-0.032610767
19	0xbd938d2e	-0.07204662
20	0xbd938232	-0.07202567
21	0x3de248c6	0.11049037
22	0x3d57026b	0.05249254
23	0xbce23166	-0.027611446
24	0x3d174ca4	0.036938325
25	0xbdf5fefa	-0.120115235
26	0xbe02d6cd	-0.12777252
27	0x3bfdb1f8	0.007742163
28	0xbd530445	-0.051517744
29	0xbdd8d623	-0.10587718
30	0x3bb2c260	0.0054553
31	0xbdcc7a52	-0.09984268
32	0x3e05fe77	0.13085352
33	0xbe00c416	-0.12574801
34	0xbd0ef2eb	-0.034899633
35	0x3ce3694b	0.027760169
36	0x3e01dfa3	0.12682967
37	0x3d5db696	0.054129206
38	0x3de2d2d5	0.11075369
39	0x3dce87bf	0.10084485
40	0xbdbe4059	-0.09289617
41	0x3dae0913	0.084978245
42	0xbdc48e15	-0.095974125
43	0x3d70152e	0.05861395
44	0xbd028aac	-0.03187053
45	0x3dfca8b4	0.12336865
46	0xbd6f8e7d	-0.058485497
47	0xbd0ebf10	-0.03485018
48	0xbd75c085	-0.059998054
49	0x3cb9f3bd	0.022699231
50	0xbd172b1e	-0.036906354
51	0xbd88ac82	-0.06673528
52	0xbdfdaf88	-0.123869956
53	0x3bdc9be8	0.0067324527
54	0xbd8e554c	-0.06949863
55	0x3db9a99d	0.09065554
56	0x3dcfb911	0.101427205
57	0x3d88bd29	0.066767044
58	0x3d55c6fd	0.052191723
59	0x3dc87588	0.09788042
60	0x3d556583	0.052098762
61	0xbd077a4c	-0.033075616
62	0x3cbde464	0.023180194
63	0x3c985d1d	0.018599087
64	0x3d74ca6b	0.059763353
65	0x3c252c0b	0.010081301
66	0x3d90d2a8	0.070714295
67	0xbcd07072	-0.025444243
68	0x3ce961f7	0.028489096
69	0x3da68c2a	0.08132203
70	0xbd08c874	-0.033394292
71	0x3e140f1e	0.14458892
72	0x3e096bc7	0.1342002
73	0xbb056d12	-0.00203592
74	0x3d33296c	0.043740675
75	0xbb99f722	-0.00469865
76	0x3ddc628d	0.107609846
77	0x3ce50510	0.027956516
78	0xbdfd74e8	-0.12375814
79	0xbda32729	-0.079664536
80	0xbdaab3b6	-0.083350584
81	0x3e01fcfc	0.12694162
82	0xbd62e434	-0.055393413
83	0x3c9bc213	0.01901344
84	0x3e0c30aa	0.13690439
85	0xbe088363	-0.1333137
86	0x3d949cb9	0.07256455
87	0xbdec4f46	-0.11538558
88	0xbbc10f00	-0.0058916807
89	0xbdb8f20b	-0.09030541
90	0xbbfbed6c	-0.007688215
91	0xbda2d1f6	-0.07950203
92	0xbbfa0a10	-0.007630594
93	0x3e139af8	0.14414585
94	0x3d4b9eca	0.04971198
95	0x3d870edf	0.06594633
96	0xbd64ead9	-0.05588803
97	0xbcfc44a2	-0.030794445
98	0x3ddb8bf0	0.1072005
99	0x3d6c16bd	0.057638872
100	0xbda98be5	-0.08278636
101	0x3d812a6c	0.063069195
102	0x3bc7a368	0.0060924776
103	0x3c72b1a3	0.01481286
104	0xbe054e3d	-0.13018127
105	0x3d8681d6	0.06567733
106	0xbb976b53	-0.0046209483
107	0xbdb46958	-0.08809155
108	0xbd6c5493	-0.057697844
109	0x3e0aea88	0.13566029
110	0xbe08796e	-0.13327572
111	0xbcc2faf7	-0.02380131
112	0xbc812092	-0.015762601
113	0xbd92c4d8	-0.07166451
114	0x3d1cb284	0.038256183
115	0x3db1ccac	0.08681616
116	0x3e0fae92	0.14031437
117	0xbc20a1c7	-0.009804196
118	0xba03246c	-0.00050026807
119	0x3da42628	0.0801509
120	0xbe08519f	-0.13312386
121	0x3c8f88e6	0.017521333
122	0x3bf81161	0.007570431
123	0xbdf6970c	-0.12040529
124	0x3da227be	0.079177365
125	0xbda7f8da	-0.082017615
126	0x3ccc0432	0.024904344
127	0x3da21ed8	0.07916039
128	0xbdf8cf72	-0.12148942
129	0x3d90c4b6	0.0706877
130	0x3cfe36db	0.031032017
131	0x3e0621bb	0.13098805
132	0xbd2a2ddb	-0.041547637
133	0x3e141fb0	0.14465213
134	0x3d875486	0.066079184
135	0xbc0011e4	-0.007816765
136	0xbe0e18bc	-0.13876623
137	0xbc81468c	-0.01578071
138	0xbdc37920	-0.09544587
139	0x3d0d2da0	0.03446734
140	0xbc49a4b1	-0.012307332
141	0xbdf9fd62	-0.12206532
142	0xb9635fa0	-0.0002168403
143	0x3dd592d4	0.10428396
144	0x3dfb8a56	0.12282245
145	0xbd7cafd9	-0.06169114
146	0x3d936140	0.07196283
147	0x3d94be6a	0.07262881
148	0x3c95bd46	0.01827873
149	0xbcfa13da	-0.030527044
150	0x3d42bca4	0.047543183
151	0x3e05dcb7	0.13072477
152	0xbc9c2d16	-0.019064467
153	0x3d7f2739	0.062293265
154	0x3e0e2d52	0.13884476
155	0x3d4d5c23	0.050136697
156	0x3e0830db	0.13299887
157	0xbc1432f4	-0.009045351
158	0xbcd0d7f7	-0.025493605
159	0xbdc679d4	-0.096912056
160	0x3de8d56b	0.11368831
161	0xbde286c0	-0.11060858
162	0xbdee9eb7	-0.11651366
163	0x3d0b4cd1	0.034008805
164	0xbd98f4cc	-0.07468566
165	0x3d95c1fc	0.0731239
166	0x3dcdc1d2	0.10046734
167	0xbc7cb592	-0.015424149
168	0xbd4a4268	-0.049379736
169	0x3e0f7fa5	0.14013536
170	0xbd113147	-0.035447385
171	0xbd61e10e	-0.05514627
172	0x3c13cd64	0.009021137
173	0xbc5e8b73	-0.013583052
174	0xbdd6c24f	-0.1048628
175	0xbd8557c5	-0.06510881
176	0xbe02699a	-0.12735596
177	0x3c57efaa	0.013179699
178	0x3debabfb	0.11507412
179	0xbd09bb5d	-0.03362595
180	0xbdb2b492	-0.08725847
181	0x3da4ac58	0.080406845
182	0xbe08810d	-0.13330479
183	0xbbb8b5fb	-0.005636928
184	0x3d8e11dd	0.06937001
185	0xbe152d39	-0.14568032
186	0xbd6aa2df	-0.057284232
187	0xbcb7f99d	-0.022457892
188	0xbdc11bb8	-0.09429115
189	0x3d8f50e5	0.06997851
190	0x3d000f93	0.031264853
191	0x3e0b7042	0.13617042
192	0xbdb704ce	-0.08936463
193	0x3e03139b	0.12800448
194	0xbc437e6e	-0.011931999
195	0x3db284e3	0.087167524
196	0x3dbf0fc4	0.09329179
197	0x3d44acc5	0.04801633
198	0xbd5beab8	-0.053690642
199	0x3df9fa81	0.12205983
200	0x3d426696	0.047461115
201	0xbd85aee6	-0.065275
202	0x3da2a762	0.07942082
203	0x3d66b071	0.05632061
204	0x3d99e31a	0.07514019
205	0x3d8f1d44	0.06988004
206	0xbd9f3e1b	-0.077755176
207	0x3dfa5c4c	0.122246355
208	0xbd587bdf	-0.052852508
209	0xbce81e93	-0.028334891
210	0xbb16a27a	-0.0022985027
211	0xbe03094a	-0.12796512
212	0x3c567ce4	0.0130913
213	0x3ba008b7	0.0048838514
214	0x3bf970bd	0.0076123164
215	0xbe146923	-0.14493231
216	0x3dc9dbcd	0.09856377
217	0x3b46f4d8	0.003035834
218	0xbcec2f8c	-0.028831266
219	0x3d68a906	0.05680182
220	0xbbf8d627	-0.0075938883
221	0xbd10dcbf	-0.03536677
222	0xbdd499b4	-0.10380879
223	0x3dfe096d	0.124041416
224	0xbda99003	-0.08279421
225	0x3d59329f	0.05302679
226	0x3dc31c78	0.09526914
227	0xbdd4f025	-0.103973664
228	0xbdf1c305	-0.11804775
229	0x3deae3c9	0.11469228
230	0xbcc62fdd	-0.024192745
231	0xbc72e8fd	-0.014826057
232	0xbe1546e0	-0.14577818
233	0xbd8d24c1	-0.06891776
234	0xbb840e73	-0.004030043
235	0x3dc95a3e	0.098316655
236	0x3dbeead7	0.09322136
237	0xbd913f13	-0.070921086
238	0xbd28c65a	-0.041204788
239	0x3d9d4717	0.07679575
240	0x3e191092	0.14947727
241	0x3da66d09	0.081262656
242	0x3c551c70	0.013007268
243	0x3dc87ac9	0.097890444
244	0xbdf6f603	-0.12058642
245	0xbdc15878	-0.09440702
246	0xbdb322e3	-0.087468885
247	0xbdd4c2f4	-0.10388747
248	0xbe0fe3ac	-0.14051694
249	0x3d914406	0.070930526
250	0x3d3fe3f9	0.04684827
251	0x3da47a74	0.080311686
252	0xbd86e703	-0.06587031
253	0xbdd84656	-0.105602905
254	0xbd7a5ca9	-0.061123524
255	0xbb83a652	-0.0040176297
