Parameter/bottleneck2_layer/weights/8_batch_beta.npy (npy, 768 bytes, 1 tensors)

array f4 [4, 40]
00000000: 6624 7f3f 27e0 803f 40cf 7d3f 7f99 803f
00000010: 32a5 803f 136f 7e3f 7664 803f 99f3 803f
00000020: dcb6 7e3f 4701 813f ae44 7e3f c340 803f
00000030: 4c14 803f 0575 803f 216e 7e3f 4bb6 7d3f
00000040: e3c0 7d3f 3c36 7e3f d357 803f 0a75 803f
00000050: 83da 803f be39 7f3f 669f 803f 5534 803f
00000060: e250 803f e984 7f3f 48ac 803f 25f9 7d3f
00000070: 673a 803f d6aa 7f3f b20c 803f a613 813f
00000080: 622c 803f 86d7 803f d6d3 7e3f f6c7 7d3f
00000090: e645 803f 0312 813f 862e 803f fef9 7d3f
000000a0: ae47 e1af 0ad7 23ae b81e 852f 8fc2 f5ae
000000b0: 8fc2 f52e 0ad7 23af 8fc2 75af 295c 8f2f
000000c0: cccc ccae 0000 00b0 cccc cc2e ae47 612f
000000d0: cccc cc2e eb51 382f 8fc2 f5ae 0ad7 a3ad
000000e0: e17a 14b0 eb51 b8af 0000 0000 cccc ccae
000000f0: cccc ccaf 9999 99af b81e 85af 0000 0000
00000100: 0ad7 a3ae eb51 38af 9999 992f 0ad7 23af
00000110: eb51 382f ae47 61af ae47 e1af ae47 61af
00000120: 0000 0000 0ad7 23af 85eb 5130 eb51 38af
00000130: 0ad7 a32d 8fc2 75ae eb51 382f 0ad7 23af
00000140: 9865 013d d658 113f a6d6 c0be 921a 03bc
00000150: e63a 00be 4a42 1e3f 12d3 38be e3f8 acbe
00000160: ee77 3e3e d0fc 063e 0d38 bb3e 5fb7 343d
00000170: 7cf4 99bb 1c11 3b3f 1a37 9cbe 2bf5 d73e
00000180: e885 e8bd 7461 d6bc 3e73 4f3d 4636 653e
00000190: e4eb 623f 60d8 23be 7b08 223d 8f0e 29be
000001a0: 1be8 7d3f 4f72 173f 0a0a 313f f843 353f
000001b0: 0040 b3be f696 0b3f 7553 91be e2b1 6d3d
000001c0: 0962 acbd 927a e7be 225e b93e 8ad2 193e
000001d0: 436b f7bd 41f3 d7be 4f8f 0f3e c7aa cf3f
000001e0: 886e 5f3e 9059 733f 5ce9 ff3e b825 e53d
000001f0: d46b af3e cbd3 1b3f 08db 8a3e 2037 993e
00000200: 4891 b03e 828c 4a3f 0449 4b3e b809 333e
00000210: acf1 283e d0bd d43e e00d 173e fa6a cc3e
00000220: 1bb7 133f b458 473e 484a da3d 225b ad3e
00000230: 40fa 293e f09b bc3e 9e2b 823e 3599 053f
00000240: 1cc3 4a3e 9c11 b23e 6a99 b63e 9ab9 6f3f
00000250: bc72 833e 3475 5c3e 0038 c73e 7cfb 743e
00000260: 4877 243e 6e26 143f 1c86 9c3e 7c61 a93e
00000270: a0bd 0f3e 7103 573f dc83 823e b64c 013f
0.99664915 1.0068406 0.99144363 1.0046843 1.0050414 0.99388236 1.0030658 1.007434
0.9949777 1.0078515 0.99323547 1.0019764 1.0006194 1.0035712 0.99386793 0.9910628
0.99122447 0.99301505 1.0026802 1.0035717 1.0066684 0.9969748 1.0048645 1.001597
1.0024683 0.9981218 1.0052576 0.9920829 1.0017823 0.9987005 1.0003874 1.0084121
1.0013545 1.0065773 0.99541986 0.9913324 1.0021331 1.0083622 1.0014198 0.9920958
-4.0978193e-10 -3.7252902e-11 2.4214386e-10 -1.11758706e-10 1.11758706e-10 -1.4901161e-10 -2.2351741e-10 2.6077032e-10
-9.313225e-11 -4.656613e-10 9.313225e-11 2.0489097e-10 9.313225e-11 1.6763806e-10 -1.11758706e-10 -1.8626451e-11
-5.401671e-10 -3.352761e-10 0.0 -9.313225e-11 -3.72529e-10 -2.7939676e-10 -2.4214386e-10 0.0
-7.4505804e-11 -1.6763806e-10 2.7939676e-10 -1.4901161e-10 1.6763806e-10 -2.0489097e-10 -4.0978193e-10 -2.0489097e-10
0.0 -1.4901161e-10 7.636845e-10 -1.6763806e-10 1.8626451e-11 -5.5879353e-11 1.6763806e-10 -1.4901161e-10
0.031591028 0.5677618 -0.37663764 -0.00800194 -0.12522468 0.618199 -0.18049267 -0.33783635
0.18600437 0.13182378 0.365662 0.04412019 -0.0046983343 0.7307298 -0.3051079 0.42179236
-0.113536656 -0.026169516 0.050647013 0.22383985 0.8864119 -0.1600051 0.03955887 -0.1650946
0.9918229 0.59158796 0.69155943 0.7080684 -0.35009766 0.54527223 -0.28383985 0.05803097
-0.08417136 -0.452107 0.3620463 0.1502172 -0.120810054 -0.42177776 0.14019512 1.6223992
0.21819508 0.95058537 0.49982727 0.11188835 0.34261954 0.60870045 0.27120233 0.2992487
0.3448584 0.7912065 0.19852072 0.17484176 0.1649844 0.41551065 0.14751387 0.39925367
0.5770127 0.19467431 0.10658699 0.3385859 0.16599369 0.3683772 0.25423902 0.521869
0.19800991 0.3477906 0.3566392 0.9364258 0.25673473 0.21529084 0.38909912 0.23924059
0.16061127 0.5787114 0.30571067 0.33082187 0.1403718 0.83989626 0.25491226 0.50507677
