Parameter/bottleneck0_layer/weights/1_depthwise.npy (npy, 9344 bytes, 1 tensors)

array f4 [1, 3, 3, 256, 1]
00000000: cfa4 363c 19b5 67bd bb2c 52bd 7696 b8bc
00000010: 837f 873c cc7b af3d f311 123d 432a 05be
00000020: b7c7 9c3d de3c 9fbd dc6c c7bd 3e2f cbbc
00000030: 0306 8c3b cdf0 1dbe d58d 193c 3e5a e93b
00000040: 1f92 a23d 7c83 033e a8f2 e93d 3e6b 86bd
00000050: ca55 82bd 7521 093e c004 0f3e 3ac7 a13d
00000060: fa8a 0c3d d1dd 94bc 391b 263d 481a 593d
00000070: b095 d0bb c03c 203a cde6 56bd 4e0b 073d
00000080: c247 483d 2eb7 9abd 4c8b 07be 92d3 53bd
00000090: 5a42 503d 087e d2bc faa9 d8bc 052b 46bd
000000a0: d70a b13c cac7 1a3d c0b9 a8ba 68d9 c23b
000000b0: ac04 48bb 1065 293a 36af 3e3d 20a7 793b
000000c0: 40a5 96bb 0467 50bc b71d e93b 06d1 82bc
000000d0: d3a5 46bd d417 f23b d1dc 333d fe23 e33d
000000e0: f29a 32bd 48c7 0a3d 84d1 9bbd aa5e 05bc
000000f0: 1624 993c 9dca ed3c f0ff 3c3e 2683 83bd
00000100: c4d5 a5bd a24d ccbd 308e 313b 8558 903e
00000110: 0041 6239 1afa 183d 7515 0a3d 6bdd 183d
00000120: ec73 a5bd 70a5 4d3c 36b2 753d d80a 5a3c
00000130: 3fa1 77bd cec4 f43c 4fa1 813d fdc7 8abc
00000140: 06d6 d1bb 4b93 c8bd 1a51 a23d e58f 083d
00000150: a469 ddbc dc0d a5bc fb7d ac3d 6241 b2bd
00000160: 0ee2 4a3c 5ada 133c d6b3 6c3c 8696 cbbd
00000170: 3eda 18bd e4e9 72bd 918b 0fbd 91bb 0fbd
00000180: 8c83 fc3c 8b2a 843d c458 ed3d 0d7e 99bc
00000190: 692c 483d e889 61bc a02c b7bb cd76 b03c
000001a0: 4139 8fbe f02d d83d 5145 0e3d 247c 48bd
000001b0: 1433 ab3e f025 3abd 071d 133d 0128 37bd
000001c0: 01ad 25bd bc77 40bc 82e3 aabc 301a 79bc
000001d0: 6d92 f0bd f66d 523d bab6 353d ed96 0d3d
000001e0: aeba 9dbd 220b 803d 8ab1 15bd f2e1 d53d
000001f0: 4081 ddba 6025 08be dcd9 013e c85c 763d
00000200: d40c 33bd 52f8 f2bc 1952 b63d 8047 1cbb
00000210: 001a 21bd d038 133d 0c81 413d d69f 593d
00000220: 2758 87bd 10a2 1b3b 84e6 bf3b 222e b5bd
00000230: c4a6 353d d0bf 01bd 0ddc 423d 233d c7bd
00000240: e0a6 adba f154 b63c 4cbf c1bc 92ee f73c
00000250: fa41 97bc 1290 aabd b795 89bd 8a15 0b3d
00000260: 740d 19bd fc57 5ebd 5a18 40bc 680b 9b3c
00000270: 17d4 c13c 49e0 53bd 5429 b63d 6e0f c23d
00000280: 0a9a e1bd 9751 a23d 4670 973b 02f4 0abe
00000290: b02c 44bc 40da b8ba bb69 803d 483b b0bd
000002a0: 9b20 3a3e 9717 173e eaff 99bc fbf4 063d
000002b0: 86c3 91bd 0093 edba a215 bcbd 2e7e 82bd
000002c0: a62f 4f3d 48a0 9f3b c018 043c fbdd 73bd
000002d0: a40a 523c 12a3 8e3d 15c1 80be def0 893c
000002e0: bd57 813c 30b9 203d 8db1 1d3d 8871 a83b
000002f0: 2a45 053d 0370 21be d4e4 083c 9272 bf3d
00000300: cc64 acbc 76e7 0dbd 0ced 62bd 9af2 593c
00000310: 4ea1 c13c 2931 89bc b91f febc c19a 913d
00000320: f3b7 033d 6610 b3bc ca76 5a3c baca 043d
00000330: 41f8 a33c cea0 123d e6b4 ecbc f053 613d
00000340: 5f89 703d e9d0 1ebd 5ae1 22bd f0ea 35bc
00000350: 8d10 cabc 0ab1 babc 2cd8 143d 13a7 e6bd
00000360: c46d a73d bfea 0abd d2e4 42bd b88c 20bd
00000370: 4821 57bd 75d0 06be e01e f3bc 2777 813d
00000380: fcc2 37bc 493b ef3c 33c4 2e3c 4c4d ba3d
00000390: 2372 6b3d ecf8 81bd 42ef 953d 2923 143d
000003a0: e261 c23d 0e56 a43c 1ee7 a23c 67b1 94bc
000003b0: 572b e8bd deed e23c 6096 cb3b 0696 4b3c
000003c0: 821c a63d 34ac 8e3d c9d9 36bb ff8f 32bd
000003d0: fa28 a6bc 0ab0 d53b 1ea3 ac3d 3463 353d
000003e0: ee81 e2bc a19c 883c 1440 cbbd 651f 9dbd
000003f0: f08d 0dbc 83c0 413c e034 89ba e08f 92bd
0.011147692 -0.056569193 -0.05131219 -0.022532683 0.016540295 0.08568534 0.03566165 -0.13004403
0.0765528 -0.07775281 -0.0973756 -0.0248028 0.0042731776 -0.1542389 0.009372194 0.0071213534
0.07938027 0.12843126 0.11423236 -0.065634236 -0.06364019 0.13391669 0.13966656 0.078993276
0.034312226 -0.018172177 0.040553305 0.05300358 -0.0063655004 0.0006112568 -0.052466203 0.032969765
0.04889656 -0.0755447 -0.13236731 -0.05171544 0.050844528 -0.025694862 -0.026448239 -0.04838087
0.021611614 0.03778819 -0.0012872741 0.005946327 -0.0030520363 0.0006461898 0.046553813 0.0038094
-0.004597336 -0.012719873 0.007114138 -0.01596881 -0.048497986 0.0073880944 0.04391176 0.11090849
-0.0436048 0.033881456 -0.07608321 -0.008140245 0.018693965 0.029027278 0.18457007 -0.06421499
-0.08097413 -0.09975745 0.0027092807 0.28192535 0.00021577254 0.03734789 0.03371187 0.037320536
-0.08078751 0.01255165 0.05998441 0.013308249 -0.06045651 0.029879 0.06329595 -0.016941065
-0.0064036874 -0.09793719 0.07925625 0.033340354 -0.027027912 -0.02014821 0.08422466 -0.08703877
0.012382997 0.009024227 0.014447173 -0.099408194 -0.037317507 -0.059305087 -0.03504521 -0.035090987
0.030824445 0.06453427 0.11589196 -0.018736864 0.048870478 -0.01376579 -0.0055900365 0.021541024
-0.2797337 0.10555637 0.034734074 -0.048946515 0.33437407 -0.045446336 0.035916355 -0.044715885
-0.040448193 -0.011747297 -0.020860437 -0.0152039975 -0.117466785 0.0513744 0.044363715 0.034567762
-0.07701622 0.062521234 -0.036546268 0.10443486 -0.0016899481 -0.13295507 0.12680763 0.060147077
-0.043713406 -0.029659424 0.08902378 -0.0023846328 -0.039331436 0.035942852 0.04724221 0.053130947
-0.066086106 0.002374772 0.005856337 -0.0884669 0.044348493 -0.031677067 0.047573138 -0.09728458
-0.0013248585 0.0222573 -0.023650788 0.030265126 -0.018464077 -0.083282605 -0.06718009 0.033956088
-0.037366346 -0.054283127 -0.011724556 0.018926337 0.023660703 -0.051727567 0.088946015 0.09475599
-0.11015709 0.07925718 0.0046215383 -0.13569644 -0.011973545 -0.001410313 0.062701665 -0.08605057
0.181765 0.14755093 -0.018798787 0.032948475 -0.07117371 -0.0018125474 -0.09183814 -0.06371723
0.05058255 0.004871402 0.0080625415 -0.05953787 0.01281992 0.06964697 -0.2514731 0.016838487
0.015788907 0.03923911 0.038499404 0.005140487 0.032536663 -0.15765385 0.008355338 0.093480244
-0.021044157 -0.034644566 -0.055401847 0.01330247 0.023636486 -0.016747074 -0.031020986 0.07109595
0.03215785 -0.021858405 0.013333986 0.032419898 0.020015838 0.035797887 -0.028894853 0.05501169
0.058724757 -0.03877345 -0.039765693 -0.011103377 -0.024666095 -0.022789497 0.03633897 -0.11262336
0.08175233 -0.033915278 -0.0475815 -0.0391967 -0.052521974 -0.13165458 -0.029677808 0.06321555
-0.0112159215 0.029203074 0.010666895 0.090967745 0.057481896 -0.06346306 0.073210254 0.036166344
0.09491326 0.020060565 0.019885596 -0.018150998 -0.113363914 0.027701315 0.0062129945 0.012425905
0.08110906 0.06966439 -0.0027900806 -0.043594357 -0.020283211 0.0065212296 0.0842955 0.04428406
-0.027649846 0.016676249 -0.09924331 -0.07672004 -0.008639798 0.0118256835 -0.0010468028 -0.07156348
