Parameter/bottleneck0_layer/weights/4_conv2d.npy (npy, 57472 bytes, 1 tensors)

array f4 [1, 1, 1, 256, 56]
000000 a2 0e 43 bd d6 ed 17 3d 71 f9 93 bd e5 00 08 3e
       -0.047621377 0.037092052 -0.072253115 0.13281591
000010 e5 60 cb bc d0 84 d1 3d 30 3d fe 3d 6b a4 cd bd
       -0.024826476 0.1023041 0.12414014 -0.10041126
000020 b6 81 0b 3d 5a be e1 3d a9 6a 41 3d 92 68 17 3d
       0.03405925 0.11022635 0.04722086 0.03696496
000030 84 be cc bd 52 d7 0b 3e ae a1 ec 3d 6c f3 6b bc
       -0.099972755 0.13656357 0.115542755 -0.014401298
000040 34 26 3c bd 00 1b 6e 3d 68 ff 90 3d c2 32 5c 3d
       -0.04593487 0.058131218 0.07079965 0.053759344
000050 1e 73 4d bc f7 80 fb 3d 41 d9 cd bd 7d 15 30 bd
       -0.012539653 0.122804575 -0.100512035 -0.042989243
000060 29 01 c2 bc 2c 3e 09 3d ca 78 c1 3c 42 72 8c 3d
       -0.023682194 0.033506557 0.023617167 0.068577304
000070 59 29 6c bd 23 54 db bd ea 05 ae 3d 21 f6 2e 3d
       -0.05765662 -0.10709407 0.08497222 0.042715196
000080 5d 8e db 3d 42 2f 8c bd 4a 8c a2 bb 16 33 2a 3d
       0.10720513 -0.06844951 -0.0049605714 0.041552626
000090 40 40 77 3a 8c e5 d8 3d b3 80 bd 3c 67 e2 cf bd
       0.0009431876 0.105906576 0.023132658 -0.10150605
0000a0 dc 88 08 bd c7 d8 89 bd f2 0e ca bd 6a 96 7d bd
       -0.033333644 -0.067308 -0.09866132 -0.061911024
0000b0 d9 bc 04 be f1 f6 f4 bd 12 6a 06 bd 9a 55 c5 bd
       -0.12962665 -0.11961163 -0.032816 -0.09635468
0000c0 91 8f aa 3d 02 19 30 bd 67 b6 e0 bd 6f 48 39 3d
       0.08328164 -0.0429926 -0.109722905 0.045235094
0000d0 6e 1c 93 3d fd 11 c5 3d 90 a8 9c bd 0e 0f f9 3d
       0.07183157 0.096225716 -0.07649338 0.121610746
0000e0 8d 59 e2 bd 40 0b f6 bd f6 99 ee 3d de af cb 3d
       -0.11052237 -0.120138645 0.116504595 0.099456534
0000f0 da 24 4c 3d e9 16 16 be 44 97 6c bb ed 06 93 bd
       0.049839832 -0.14657177 -0.0036100904 -0.07179055
000100 9b a0 ef 3c 48 26 f9 bc 2e a5 01 3d 1d 0a e5 bc
       0.029251387 -0.030413762 0.03165167 -0.027958924
000110 f8 fd 8d 3c fc 5c 21 bd d8 e8 7d 3d 0d 91 5e bd
       0.017333016 -0.039395317 0.061989635 -0.05433755
000120 8c d9 46 3d 3a 88 0a be 94 a4 9c bd c7 ab a1 bd
       0.048547313 -0.13528529 -0.07648578 -0.07894092
000130 24 bd 09 3c 5e ff 06 3d af 55 5e 3d 31 11 cb bc
       0.008406911 0.03295838 0.054280933 -0.024788471
000140 15 8d b9 bd 24 dd 9e 3d 5c f3 d9 3c 60 55 4c bd
       -0.090601124 0.07757023 0.0266053 -0.049886107
000150 c9 d9 d4 bd ba 83 b3 3d b6 a9 ce bd 7d b5 1a 3d
       -0.10393102 0.08765359 -0.100909635 0.037770737
000160 63 4b f2 3b 28 d1 d2 bd 4c d5 af bd 11 4e 4a 3d
       0.0073942407 -0.102938 -0.08585605 0.049390856
000170 16 c8 dd bd 49 29 67 3c 24 cb 97 bd cb 18 8f 3d
       -0.10829179 0.014108964 -0.07411793 0.06987151
000180 66 7f 6f 3d 5f 77 d0 3c 9f 49 0d be ec 6c 01 be
       0.058471106 0.025447546 -0.13797615 -0.12639207
000190 9c 68 73 bd a4 99 65 bb 92 0c d3 bd 50 94 53 bd
       -0.059425935 -0.0035034204 -0.10305132 -0.051655114
0001a0 97 33 8c 3d 4c 66 d8 3c ae 73 d1 3d e8 79 ef bd
       0.068457775 0.026415966 0.10227142 -0.11693174
0001b0 df 62 4b 3d e7 d9 ef bd e5 f2 69 bd 44 9e 60 bc
       0.049654838 -0.117114834 -0.057116408 -0.013709608
0001c0 d3 b2 f6 3c 95 46 19 bd 77 b2 0a be e3 2e 93 3b
       0.030114567 -0.037420828 -0.13544641 0.0044916733
0001d0 70 46 b6 3d 50 ed 72 3c e8 17 ec bd 21 47 b8 3d
       0.08900154 0.0148270875 -0.11527997 0.08997942
0001e0 98 c1 3e bb a2 81 86 3a 89 f9 08 be 61 47 0c 3e
       -0.002910709 0.0010262022 -0.1337644 0.13699104
0001f0 c0 85 07 be f1 e4 29 bb 14 aa 14 3c 0d d7 96 3d
       -0.13234615 -0.0025923813 0.009073753 0.073652364
000200 8d 3e 1d bd d8 67 f0 3d 3c b7 e7 bd 5f 61 b2 3d
       -0.03838973 0.117385566 -0.11314246 0.08709978
000210 95 06 44 bd 48 e0 4a bd a1 4d a1 bd 01 d5 c9 bd
       -0.04785784 -0.049530298 -0.07876135 -0.098550804
000220 b7 66 1f 3d f5 e0 8d bd 9a 6e 0c be eb 8c 92 3c
       0.038916316 -0.06927673 -0.13714066 0.01788946
000230 0e 45 f6 3d aa 43 4f bc 81 75 88 3d 94 18 b1 3d
       0.1202489 -0.01265041 0.06663037 0.08647266
000240 09 58 f4 3d 54 b7 f2 3d fb fb 00 3e 3b 86 03 be
       0.11930854 0.11851373 0.12596123 -0.12844174
000250 53 8d a0 3d 5d 32 e4 3d 86 f1 fc bd 57 31 b9 bd
       0.078394555 0.111424185 -0.123507544 -0.09042614
000260 07 26 15 be 9c d7 19 3d 0b 3a 02 3e ba 27 b3 3d
       -0.14565288 0.037559137 0.12717454 0.087478116
000270 d0 43 3f bd c8 45 bd 3d 8c b7 fa bd f4 81 eb bd
       -0.04669553 0.09241825 -0.1224204 -0.11499396
000280 e6 5e cf bc ee 09 98 3d c9 5f e5 bd 20 99 25 bd
       -0.025313806 0.07423769 -0.1119991 -0.040429235
000290 60 a3 ee bd 57 64 70 bd 10 7f a4 bd 20 0d 13 3d
       -0.11652255 -0.05868944 -0.08032048 0.03590119
0002a0 0b b6 d1 3d 65 41 a0 3d 57 b7 68 bd a3 1f f9 bd
       0.102398 0.07824973 -0.05681547 -0.12164237
0002b0 37 1c 09 3b ae 63 89 3d 6b 54 7b 3d 34 99 08 bd
       0.0020921358 0.067084655 0.061359804 -0.03334923
0002c0 94 c0 61 bd 6c e2 9e 3d c8 9c 6f bd c0 3e 3c bc
       -0.055115297 0.0775803 -0.058499128 -0.01148957
0002d0 a0 94 b0 3d af 40 80 bc ae 9b df bd 0f 24 49 bd
       0.08622098 -0.015655844 -0.109183654 -0.049106654
0002e0 56 dd 54 bd 6b 75 72 3d ba 82 40 3d 2e eb fc bd
       -0.051968895 0.05919401 0.04699967 -0.123495445
0002f0 45 23 0d be 3f 93 ec 3c 72 ce 12 3c 42 48 bd 3d
       -0.13782986 0.028878806 0.008960353 0.09242298
000300 a8 ad ff 3c 20 b6 e5 3d 24 ee be bd 0b de f4 3c
       0.031210735 0.11216378 -0.093227655 0.029891035
000310 af d2 ad bd 16 46 86 bd 1c 52 ef bc 08 4e 10 bd
       -0.0848745 -0.065563366 -0.029213957 -0.035230666
000320 12 61 0e bd ba 1b 03 be 8f cd fa bd 96 b9 70 3d
       -0.034760542 -0.12803546 -0.122462384 0.05877074
000330 dd 9c fe bd 86 f8 ef 3d 62 dc 0d bd 1a f5 98 bd
       -0.12432263 0.11717324 -0.034634 -0.074686244
000340 0c dd a0 3d 70 80 9b 3c fa 2a 24 3c 24 34 05 be
       0.07854661 0.018982142 0.010020012 -0.13008171
000350 ba 91 b3 bc 59 4b ca 3d ba 24 c5 bd b1 9c 0d be
       -0.021920074 0.09877653 -0.09626146 -0.13829304
000360 0b cb ed bd dc 30 5d 3d 53 97 b9 3d e3 0d 7a bd
       -0.11610993 0.054001674 0.09062066 -0.0610484
000370 d9 6f 0a be 1b 70 da 3d 79 d7 f4 bd f2 58 fb 3c
       -0.13519229 0.10665914 -0.11955161 0.03068206
000380 e4 c2 cf bd 51 40 e0 3c 78 7d f2 3d 02 a8 eb 3d
       -0.10144594 0.027374418 0.118403375 0.11506654
000390 de e9 5e 3d 68 c5 ea bc 40 f4 e5 b8 95 90 1a 3e
       0.054422252 -0.028658584 -0.00010965066 0.15094216
0003a0 8e 46 9c bd e6 0c 01 3e ad 58 e3 3d 39 c3 98 3d
       -0.07630645 0.12602577 0.11100898 0.07459111
0003b0 d0 e4 e2 3d 28 d6 87 3d 3c 83 8a bd 85 75 b1 bc
       0.11078799 0.06632644 -0.06763312 -0.021662483
0003c0 ff 19 0d 3e 6a 57 f2 bd e7 19 52 3d d3 53 77 3d
       0.13779448 -0.11833079 0.051294234 0.060382675
0003d0 58 7a 73 bd f3 10 0b 3e 4b 3d 00 be 1f 84 99 bd
       -0.059442848 0.13580684 -0.12523381 -0.07495903
0003e0 af 13 6d bd e9 4f 1a bd fd 75 c0 3d 53 22 94 3c
       -0.0578801 -0.037673865 0.093975045 0.018082773
0003f0 4c ac b5 3d 9c 82 ea 3d e9 27 f7 3d 70 eb 69 3d
       0.08870754 0.11450693 0.12068159 0.057109296
