Parameter/bottleneck0_layer/weights/5_batch_variance.npy (npy, 1024 bytes, 1 tensors)

array f4 [4, 56]
0.9879973 1.0157611 1.0049039 1.0036925 0.9996328 1.0009044 1.0044904 0.9957289
1.0058486 1.0049933 1.0010012 1.0059633 0.9904092 1.0050434 0.99768376 1.0101708
1.0186325 1.0088379 1.0041898 1.0082084 0.9982619 1.0002806 0.9880835 0.9933122
1.0073692 0.9934745 1.012425 0.9847712 0.993257 0.99127793 0.99951214 1.0100912
0.9835863 0.9826575 0.98681694 1.0091052 1.0046388 0.9853555 0.99908465 0.99366635
1.0016711 1.0081838 0.99474746 1.002867 0.9979436 1.0019045 0.9910769 1.0086422
1.0064116 0.99545443 0.9891837 1.0069811 1.007124 0.98980653 0.9975009 1.008607
5.401671e-10 -1.5646219e-09 -1.4528632e-09 -1.0244549e-09 9.350479e-09 -9.536743e-09 -1.9744038e-09 3.352761e-10
-2.7008353e-09 8.9406965e-10 7.674098e-09 6.3329932e-09 -7.133931e-09 -2.1234154e-09 -3.2223761e-09 2.2724271e-09
2.1234154e-09 -5.2154063e-09 -2.9429792e-09 4.0605665e-09 -3.6694108e-09 -6.2957404e-09 -1.2051314e-08 -4.5262274e-09
-2.8871e-09 1.6018747e-09 3.0733645e-09 -2.7380882e-09 7.562339e-09 -7.953495e-09 -7.264316e-10 -2.0116566e-09
-3.9488075e-09 1.0561198e-08 -6.3329936e-10 -5.904585e-09 7.2829422e-09 9.480863e-09 6.1467287e-10 -3.2037495e-09
-2.6635825e-09 2.7194618e-09 1.117587e-09 6.92904e-09 2.9616056e-09 -5.159527e-09 -2.7939676e-10 3.1106173e-09
3.5390257e-09 8.177012e-09 9.071082e-09 -1.2479722e-09 4.7311186e-09 -2.235174e-09 3.2037495e-09 -7.580965e-09
0.09137584 -0.04282166 0.26905382 0.13647997 0.35613877 -0.16960193 0.058085352 0.22557074
0.70574564 0.39142197 -0.58266455 -0.5434962 -0.68398404 -0.87279314 -0.069010295 -0.042065516
0.20751081 0.21116011 0.34334195 -0.48793074 0.44155228 -0.17869087 0.36541104 0.5121501
-0.25267142 -0.09810127 0.63008857 -0.38014403 -0.5101344 0.1086066 -0.002694314 -0.52122045
0.04169847 -0.18545318 -0.5233787 -0.15208237 -0.56265867 -0.15171169 -0.619969 0.15803967
0.18178083 0.0909019 0.24438636 0.6927272 -0.40012506 -0.7490141 0.28365654 0.1658032
-0.3740443 0.3891441 0.46828932 0.59834975 -0.48705283 -0.020361159 -0.40975833 0.15588333
0.38425708 0.2129175 0.22507256 0.23939586 0.26526332 0.32578027 1.03907 0.103485465
0.81216043 0.24450338 0.5405698 0.17807627 0.28261662 0.52365947 0.29302293 0.17763239
0.30443048 0.36203045 0.42530394 0.41790903 0.12228793 0.25069928 0.22151983 0.07350099
0.34590888 0.36875272 0.18870819 0.1948824 0.28901422 0.3376943 0.44340068 0.39969254
0.3780619 0.13899785 0.23416317 0.21120256 0.17830074 0.14575207 0.23054004 0.09879953
0.045686126 0.33436704 0.3115061 0.34180087 0.4517573 0.3589245 0.61772364 0.23449922
0.36019182 0.33744907 0.26227558 0.2793219 0.17989576 0.3206153 0.24251091 0.36518848
00000000: 64ed 7c3f 7604 823f b1a0 803f ff78 803f
00000010: efe7 7f3f a31d 803f 2493 803f 17e8 7e3f
00000020: a6bf 803f 9fa3 803f cf20 803f 68c3 803f
00000030: 758b 7d3f 43a5 803f 3468 7f3f 474d 813f
00000040: 8d62 823f 9a21 813f 4b89 803f f90c 813f
00000050: 188e 7f3f 3209 803f 0af3 7c3f b549 7e3f
00000060: 79f1 803f 5854 7e3f 2497 813f f719 7c3f
00000070: 1746 7e3f 64c4 7d3f 07e0 7f3f ab4a 813f
00000080: 50cc 7b3f 718f 7b3f 09a0 7c3f 5c2a 813f
00000090: 0198 803f 4240 7c3f 03c4 7f3f eb60 7e3f
000000a0: c236 803f 2b0c 813f c5a7 7e3f f25d 803f
000000b0: 3b79 7f3f 683e 803f 37b7 7d3f 301b 813f
000000c0: 18d2 803f 1ad6 7e3f 253b 7d3f c2e4 803f
000000d0: 70e9 803f f663 7d3f 385c 7f3f 091a 813f
000000e0: e17a 1430 3d0a d7b0 14ae c7b0 cdcc 8cb0
000000f0: d7a3 2032 0ad7 23b2 14ae 07b1 eb51 b82f
00000100: 9999 39b1 8fc2 7530 0ad7 0332 9999 d931
00000110: b81e f5b1 85eb 11b1 a470 5db1 f628 1c31
00000120: 85eb 1131 3333 b3b1 703d 4ab1 1f85 8b31
00000130: f528 7cb1 eb51 d8b1 3d0a 4fb2 1e85 9bb1
00000140: 6666 46b1 f528 dc30 3333 5331 f528 3cb1
00000150: 85eb 0132 d7a3 08b2 14ae 47b0 703d 0ab1
00000160: 14ae 87b1 a470 3532 7b14 2eb0 47e1 cab1
00000170: 703d fa31 47e1 2232 c2f5 2830 f528 5cb1
00000180: 3d0a 37b1 47e1 3a31 9999 9930 7b14 ee31
00000190: 1e85 4b31 ae47 b1b1 9999 99af 8fc2 5531
000001a0: 3333 7331 e17a 0c32 0ad7 1b32 1e85 abb0
000001b0: 5c8f a231 9999 19b1 f528 5c31 703d 02b2
000001c0: 4223 bb3d c465 2fbd 6cc1 893e 68c1 0b3e
000001d0: d257 b63e 21ac 2dbe e8ea 6d3d 04fc 663e
000001e0: bfab 343f 7668 c83e 8129 15bf 9122 0bbf
000001f0: 9419 2fbf 5f6f 5fbf 4555 8dbd e44c 2cbd
00000200: b77d 543e 5b3a 583e 84ca af3e 0fd2 f9be
00000210: 2413 e23e bdfa 36be 2817 bb3e 451c 033f
00000220: 265e 81be 52e9 c8bd 7c4d 213f 3da2 c2be
00000230: 2b98 02bf 236d de3d 1793 30bb b46e 05bf
00000240: 04cc 2a3d 70e7 3dbe 25fc 05bf 7bbb 1bbe
00000250: 660a 10bf 4f5a 1bbe 4ab6 1ebf 27d5 213e
00000260: c124 3a3e c62a ba3d 6b40 7a3e 9256 313f
00000270: 31dd ccbe 63bf 3fbf 6e3b 913e 50c8 293e
00000280: bc82 bfbe e53d c73e 9ec3 ef3e 732d 193f
00000290: fd5e f9be 72cc a6bc d8cb d1be e19f 1f3e
000002a0: 58bd c43e 0c07 5a3e 6c79 663e 3024 753e
000002b0: 98d0 873e accc a63e 3f00 853f 30f0 d33d
000002c0: bfe9 4f3f 185f 7a3e c862 0a3f a059 363e
000002d0: 20b3 903e 8c0e 063f 1a07 963e 44e5 353e
000002e0: 50de 9b3e 0e5c b93e 70c1 d93e 2cf8 d53e
000002f0: 1872 fa3d a85b 803e 18d6 623e b087 963d
00000300: f81a b13e 28cd bc3e b83c 413e 408f 473e
00000310: acf9 933e 44e6 ac3e 6a05 e33e 80a4 cc3e
00000320: 5491 c13e 7455 0e3e 78c8 6f3e 7c45 583e
00000330: 7894 363e 0840 153e b012 6c3e 6857 ca3d
00000340: 6021 3b3d 2832 ab3e ba7d 9f3e 8600 af3e
00000350: bc4c e73e f4c4 b73e 2323 1e3f 9020 703e
00000360: 106b b83e 20c6 ac3e fc48 863e 4803 8f3e
00000370: 9836 383e b027 a43e c854 783e fcf9 ba3e
