Parameter/Conv1/weights/1_conv2d.npy (npy, 38528 bytes, 1 tensors)

array f4 [1, 1, 1, 40, 240]
-0.118736744 -0.061802883 0.04217542 0.13862434 -0.00014149694 0.01897848 0.14403449 0.004439392
0.12825719 -0.06548316 -0.093365036 0.03581821 0.01954301 -0.11418149 0.09886457 0.07780308
0.087601066 0.004765687 0.04858952 -0.04884057 -0.09450812 0.010522618 -0.1408803 -0.046276677
-0.1257128 0.0027644816 0.13786264 -0.06166513 -0.103025675 -0.0352884 0.021046504 -0.006617536
-0.026979176 -0.06943267 0.13058977 -0.003057844 0.093659535 0.019482108 0.016407538 0.097976245
0.06585713 0.0046328614 -0.040861234 -0.022450235 -0.07858915 -0.102507636 -0.08545196 0.035268024
-0.0026704264 -0.08689928 0.27327886 -0.060029685 0.010507574 -0.05016737 -0.078694806 0.0780021
0.036599953 -0.09522364 0.12055175 0.14626832 0.088033386 0.10727153 0.10810174 0.11403062
-0.11392935 0.0026801438 -0.011233515 -0.06686642 -0.14402351 0.0049047815 0.04879773 0.005562923
-0.024477292 -0.08370021 0.1370433 -0.11777988 -0.07041386 0.16604528 -0.13537142 0.03497837
0.1054535 -0.0293287 -0.03369986 -0.12454943 0.011472577 0.12296733 0.12767467 0.03383278
-0.089313194 0.0027950392 0.12817502 -0.08979279 0.07541445 -0.07750289 -0.11474708 0.0579033
0.1119158 0.073773906 -0.09903222 0.11393537 -0.06481863 -0.07784161 0.14006835 0.119332105
0.10386051 0.14453058 -0.054289814 0.11979748 -0.03274153 0.004984258 -0.13590637 0.09719
0.13935536 -0.1313117 -0.05529065 0.0711794 0.05598703 0.11417307 -0.054868896 0.06516746
0.110279806 0.112584226 0.040017527 -0.0788274 -0.07939992 0.10811259 -0.13607068 -0.08631265
0.1406398 0.12267491 -0.068598635 0.11071439 0.072665505 -0.100182675 -0.055186637 -0.009506297
-0.09449329 0.043117084 -0.075846076 -0.119679525 0.032582678 0.11341949 -0.11774967 0.10945391
-0.07242808 -0.007206277 -0.04453061 -0.067249306 -0.017268779 -0.13858473 0.10571272 0.071248956
-0.012925782 -0.05630535 -0.09437926 0.06043328 0.016142126 0.045061477 -0.022323819 0.06247694
0.057632443 0.06696852 -0.05246845 -0.0368483 0.07816886 -0.13174137 -0.038509436 0.11723421
0.09341338 -0.08449243 -0.053595364 -0.05479035 0.091144465 -0.13768297 -0.034951136 -0.06614051
0.06520567 0.02318362 0.022858698 -0.035848808 0.0019966082 -0.13915348 -0.089008495 -0.13146451
0.0968051 -0.044318434 -0.01112853 0.05917788 -0.038918037 -0.068733305 0.13889883 0.07181091
-0.10661895 0.011183611 0.07668301 0.12535323 0.014951411 -0.06366089 0.12761615 -0.12556227
0.10159912 -0.06226482 -0.0068409126 -0.060984198 0.065324455 0.058517613 -0.0021277396 0.13562828
0.0903959 -0.07931813 0.091187686 -0.008458664 0.035269935 0.1391621 0.013523381 -0.12386676
-0.080460854 -0.12398304 0.14005713 -0.009383985 0.025604885 0.09947816 0.114521034 0.13424814
0.10316421 0.087492906 -0.14180279 0.08651758 0.04483299 -0.026203845 0.11812512 0.011738501
-0.14391883 0.12453638 0.1327168 0.10234532 -0.103612244 0.11317374 0.121079944 -0.053889856
0.017931743 -0.045127556 -0.11735656 -0.12825882 -0.10349543 0.087549016 -0.06969265 0.045814328
-0.0031213975 -0.11947571 0.074963465 0.0053812456 -0.02462926 0.08335774 -0.009898979 0.03218332
00000000: 402c f3bd 0525 7dbd 22c0 2c3d 8af3 0d3e
00000010: cc5e 14b9 c278 9b3c c77d 133e 5278 913b
00000020: da55 033e 091c 86bd 2b36 bfbd 1eb6 123d
00000030: aa18 a03c fcd7 e9bd 8279 ca3d 3957 9f3d
00000040: 3068 b33d 7b29 9c3b ce05 473d 0d0d 48bd
00000050: 798d c1bd 0f67 2c3c ed42 10be 9d8c 3dbd
00000060: dbba 00be 4e2c 353b dd2b 0d3e 9394 7cbd
00000070: 20ff d2bd 928a 10bd b869 ac3c ead7 d8bb
00000080: 6f03 ddbc b732 8ebd 53b9 053e 1c66 48bb
00000090: 92d0 bf3d f198 9f3c 1a69 863c c5a7 c83d
000000a0: 1ae0 863d 42cf 973b 1c5e 27bd 8ee9 b7bc
000000b0: 59f3 a0bd 86ef d1bd 7001 afbd 3475 103d
000000c0: 5202 2fbb 40f8 b1bd 35eb 8b3e b0e1 75bd
000000d0: f627 2c3c 4d7c 4dbd be2a a1bd 91bf 9f3d
000000e0: d5e9 153d 9d04 c3bd d6e3 f63d 5dc7 153e
000000f0: d94a b43d 2db1 db3d 7264 dd3d e388 e93d
00000100: cb53 e9bd 5aa5 2f3b c70c 38bc 43f1 88bd
00000110: e67a 13be 4ab8 a03b 21e0 473d 2e49 b63b
00000120: 9a84 c8bc 046b abbd 1455 0c3e 9436 f1bd
00000130: 2435 90bd c607 2a3e ce9e 0abe 7b45 0f3d
00000140: 01f8 d73d be42 f0bc dd08 0abd c613 ffbd
00000150: 7af7 3b3c 4cd6 fb3d 26bd 023e 3e94 0a3d
00000160: d6e9 b6bd fa2c 373b 5040 033e 48e5 b7bd
00000170: e472 9a3d d6b9 9ebd 8400 ebbd 032c 6d3d
00000180: 1c34 e53d c616 973d 68d1 cabd f356 e93d
00000190: a1bf 84bd 6c6b 9fbd 146e 0f3e 6464 f43d
000001a0: d2b4 d43d d3ff 133e ff5e 5ebd 6258 f53d
000001b0: fc1b 06bd fd52 a33b 0a2b 0bbe 8d0b c73d
000001c0: 2cb3 0e3e 9376 06be 7378 62bd 81c6 913d
000001d0: a852 653d 92d3 e93d 35be 60bd 8476 853d
000001e0: 61da e13d 8f92 e63d 6be9 233d 4370 a1bd
000001f0: 6d9c a2bd 226a dd3d 1d56 0bbe b0c4 b0bd
00000200: e103 103e fc3c fb3d 717d 8cbd 3abe e23d
00000210: a7d1 943d 932c cdbd 620b 62bd 4dc0 1bbc
00000220: b385 c1bd 8a9b 303d 3055 9bbd 8a1a f5bd
00000230: 6a75 053d 7a48 e83d bd26 f1bd 5f29 e03d
00000240: 2c55 94bd a222 ecbb bb65 36bd 01ba 89bd
00000250: 4177 8dbc 28e9 0dbe e97f d83d f9ea 913d
00000260: a9c6 53bc 70a0 66bd ea49 c1bd e388 773d
00000270: 7e3c 843c 6292 383d 71e0 b6bc d2e7 7f3d
00000280: ff0f 6c3d cb26 893d 28e9 56bd 3eee 16bd
00000290: ff16 a03d 36e7 06be 12bc 1dbd 7d18 f03d
000002a0: 844f bf3d 5e0a adbd d086 5bbd d96b 60bd
000002b0: f3a9 ba3d c4fc 0cbe ec28 0fbd ad74 87bd
000002c0: 8d8a 853d 93eb bd3c 2a42 bb3c 33d6 12bd
000002d0: 87d9 023b 407e 0ebe 164a b6bd a29e 06be
000002e0: c141 c63d 3f87 35bd 7054 36bc 8164 723d
000002f0: 8568 1fbd 0cc4 8cbd 7f3b 0e3e 9911 933d
00000300: 095b dabd 773b 373c fb0b 9d3d 995c 003e
00000310: c3f6 743c a460 82bd cfad 023e 6593 00be
00000320: 3313 d03d 6509 7fbd bc29 e0bb 91ca 79bd
00000330: d4c8 853d 2ab0 6f3d 8c71 0bbb 24e2 0a3e
00000340: 7c21 b93d 8b71 a2bd 9cc0 ba3d 3596 0abc
00000350: 3577 103d 8280 0e3e 2c91 5d3c dbad fdbd
00000360: a9c8 a4bd d2ea fdbd 236b 0f3e 49bf 19bc
00000370: 56c1 d13c 35bb cb3d 018a ea3d 5878 093e
00000380: c247 d33d 7b2f b33d c034 11be 2130 b13d
00000390: cca2 373d 72a9 d6bc 95eb f13d d752 403c
000003a0: 755f 13be ee0c ff3d eae6 073e 6c9a d13d
000003b0: a832 d4bd a2c7 e73d c3f8 f73d 9cbb 5cbd
000003c0: 97e5 923c acd7 38bd a358 f0bd 4856 03be
000003d0: 69f5 d3bd e64c b33d 05bb 8ebd cea7 3b3d
000003e0: 5c90 4cbb aeaf f4bd 7286 993d 2955 b03b
000003f0: 4dc3 c9bc 76b7 aa3d 542f 22bc a8d2 033d
