Parameter/bottleneck1_layer/weights/1_conv2d.npy (npy, 75392 bytes, 1 tensors)

array f4 [1, 1, 1, 56, 336]
000000 34 2e 50 3d 48 6d 2f 3b 1a c9 c3 bd fb 51 c8 3d
       0.050825313 0.0026768018 -0.095598415 0.097812615
000010 18 7d e3 3d f5 8c 0f bb 6d 9a 9e bd 40 9b 58 ba
       0.11107844 -0.0021904085 -0.07744298 -0.000826288
000020 f7 12 75 3d 1b 4c ef 3d 8d 7e 82 3c d0 fa c4 ba
       0.05983254 0.11684438 0.015929485 -0.0015028361
000030 c7 b0 88 3d a0 79 2e 3d 3f 43 f3 bd 5e 10 e8 bd
       0.066743426 0.04259646 -0.118780605 -0.11331247
000040 85 94 e4 bd 03 75 95 3d 9a 89 dc bd 17 c0 01 3c
       -0.1116114 0.07297709 -0.10768433 0.007919333
000050 06 d6 7c 3b 6e e7 80 3d 04 99 d0 3d 10 ca 5b 3d
       0.0038579716 0.06294142 0.101854354 0.0536595
000060 e6 dd 87 bd be dc 46 3a 24 5c 3e 3d 4b 1b ec 3d
       -0.06634121 0.0007585994 0.04647459 0.11528643
000070 fa 21 9c bd e9 42 4b bd 66 80 63 bc c9 46 31 bd
       -0.07623668 -0.049624357 -0.013885593 -0.043280397
000080 36 f3 59 bc 43 74 93 bd 70 6f cf 3d e1 a6 50 bc
       -0.013302615 -0.071999095 0.10128677 -0.0127350995
000090 c5 40 5c 3c 54 59 d5 3d 5f 5b e9 bc b2 bd de 3a
       0.013443177 0.104174286 -0.028485952 0.001699379
0000a0 b1 cc f3 bd 0f 25 2b bc 7f 5b cf bd 3b 5f 82 bd
       -0.11904276 -0.010445847 -0.10124873 -0.0636582
0000b0 eb 72 f9 3c e0 9a 68 be f3 04 9b bd 3b 66 ba bd
       0.030450305 -0.2271533 -0.07569303 -0.0910153
0000c0 91 38 86 3d 80 09 ab 3d 59 6b d7 3d 5b 04 94 3d
       0.06553758 0.08351421 0.10518522 0.07227393
0000d0 13 f4 15 3c 62 49 7a 3d d6 c5 94 3c 02 80 fa bc
       0.00915243 0.06110514 0.018160742 -0.030578617
0000e0 d6 0c 02 bf a3 00 a0 3d 18 94 00 3c ee 4a 70 bd
       -0.50800836 0.078126214 0.007847808 -0.05866521
0000f0 70 e0 33 3d e9 8d d7 3d 31 6d 99 3d 3b 10 43 3d
       0.043915212 0.10525114 0.0749153 0.0476229
000100 9e bc ec 3d c7 fc e0 bb 62 de a0 3d 68 5c e2 3d
       0.115594134 -0.006866071 0.07854916 0.11052781
000110 74 83 cb 3d 49 63 8a bd 86 ae db 3c fb 6b c9 3d
       0.09937182 -0.067572184 0.026816618 0.09835049
000120 ac f5 ab bd 24 cc e2 3d 52 f0 57 bc 41 cc ea 3c
       -0.083964676 0.11074093 -0.013179855 0.028661849
000130 bc 24 88 bb 75 ea f3 bc 4d a9 96 3c 08 a2 a6 bd
       -0.0041547697 -0.029774884 0.018391276 -0.08136374
000140 96 e6 9e 3d 11 8f cb 3d 34 ef 44 3d 37 65 95 bd
       0.077588245 0.09939397 0.048079684 -0.07294696
000150 f0 25 6f 3d 77 71 96 bc f3 c8 8f ba eb 9f e7 3c
       0.05838579 -0.018364651 -0.0010969922 0.028274497
000160 88 eb 67 3d 2c da eb bd 54 b7 92 3d af 44 d6 bc
       0.056621104 -0.11516222 0.07163873 -0.026155798
000170 70 15 69 3d 83 57 61 bd f1 24 ca bc 45 2f b9 bd
       0.05690521 -0.0550151 -0.024675818 -0.09042219
000180 81 58 c2 bd cb 64 b2 3d e9 ba 6e bd f0 10 d4 bd
       -0.09489537 0.08710631 -0.05828372 -0.10354793
000190 96 b4 a4 bd 71 5c 76 bd 19 a7 05 be 3c 45 dc bd
       -0.080422565 -0.060146753 -0.13052024 -0.10755393
0001a0 8b 78 1d bc 5a f2 5b bd a4 13 f4 bd e3 16 88 3b
       -0.009611259 -0.05369792 -0.11917809 0.004153119
0001b0 7c 18 83 3b 8e e1 e4 3d 6a 2b 81 bc 60 86 24 bd
       0.0040007215 0.11175834 -0.015767772 -0.040167212
0001c0 ea 36 9f bc 64 d6 b0 3d 56 b1 d5 bc cc f7 af bc
       -0.019435365 0.08634642 -0.026085537 -0.021480463
0001d0 5a d8 b3 3d 69 6d 8b bd 8d c6 b9 3d 4c 34 a9 3d
       0.087815 -0.06807978 0.09071074 0.08261928
0001e0 d4 0b 5d 3d ec 5e f5 bd bc 0b 27 3a 50 a6 40 3d
       0.05396636 -0.119809955 0.0006372293 0.047033608
0001f0 cc 93 f8 3d 00 57 98 36 04 9b a8 3d 04 74 5d 3d
       0.12137565 4.540081e-06 0.08232692 0.05406572
000200 0a d8 d6 3d ac 60 98 3d 8f 03 66 3d fa da 84 bd
       0.10490425 0.07440314 0.056155737 -0.06487079
000210 5a ec 89 bc 67 23 5d 3d 69 14 8b bd 34 8b 7e 3c
       -0.016836334 0.05398884 -0.06791002 0.015536118
000220 0e bb 38 3b bb 99 b5 bc 9c b4 de 3c d8 25 c6 3b
       0.0028187665 -0.022168031 0.02718573 0.006046992
000230 fa 70 bb 3d a6 38 c8 bd 61 bd 11 bd f2 6d 82 bd
       0.09152408 -0.0977643 -0.035580996 -0.06368627
000240 e1 b6 b9 bd 7a fa 55 3d b7 1f fd 3d 2f 61 7d 3d
       -0.090680845 0.052240826 0.12359565 0.06186026
000250 a6 56 c4 3d 96 e0 21 bc 49 a1 50 3d 6b 3e d1 bc
       0.095868394 -0.009880206 0.050935064 -0.025542459
000260 8a 14 07 be 29 d9 c9 bc 81 0e 44 bd 93 8e 5d bd
       -0.13191429 -0.024639683 -0.047865395 -0.054091047
000270 45 23 6a 3d fb 2a 90 3d 49 2c 97 bd 81 c6 10 bb
       0.057162542 0.07039448 -0.073814936 -0.0022090974
000280 da a1 04 bd 05 db 9f bd b8 11 47 3d ae 41 be 3d
       -0.032380916 -0.078054465 0.048600882 0.09289871
000290 18 af d5 bc ad 0e 08 3b 19 9b b7 3d 3d b4 b2 bc
       -0.026084468 0.00207607 0.089651294 -0.02181446
0002a0 37 2b 50 3d ea 5e ec 3d bd b1 c9 bd f7 52 0b 3d
       0.050822463 0.11541541 -0.09848354 0.03401467
0002b0 8c 3a 96 bc 7b 93 04 bd f7 87 87 bd 59 f6 55 3d
       -0.018338464 -0.03236721 -0.0661773 0.05223689
0002c0 30 9a 0f 3d 6e 15 b2 3d 48 38 df 3d 92 b6 13 bd
       0.035059154 0.08695494 0.10899407 -0.036062784
0002d0 d0 e3 7a 3d f2 9b 49 bd e6 c8 86 bc c3 e8 c3 bc
       0.061252415 -0.049220987 -0.016453218 -0.0239147
0002e0 c6 c5 5f bd 1f 84 13 3d 7d e2 34 3d 55 6e 17 3d
       -0.05463197 0.036014672 0.04416131 0.036970455
0002f0 41 82 72 3d e8 35 bf 3d 40 cc 9d 3d 01 3b 25 bd
       0.05920625 0.09336454 0.07704973 -0.040339474
000300 5d ea fb 3a 92 c0 1f 3e 11 6e f0 bb 61 d4 44 bd
       0.0019219626 0.15600803 -0.0073373397 -0.048054103
000310 9c e4 5f 3d 31 97 ae 3d ba fa 5e bd 7d d1 ac bd
       0.05466138 0.08524931 -0.05443833 -0.08438394
000320 d4 c1 4e 3d a3 03 f6 bd 62 c7 bf bd 2b c3 a2 bd
       0.050477818 -0.120124124 -0.09364201 -0.079473816
000330 a1 84 1b bd 11 e9 81 bd 55 db d6 3d 49 20 25 3d
       -0.03796828 -0.06343282 0.10491053 0.040313993
000340 e7 f7 93 3d 82 1f d8 3d d9 88 80 3d 79 7c 59 3d
       0.07225018 0.10552885 0.062761016 0.053097222
000350 16 04 2c 3d 6b b5 b0 bc 46 9b 02 bc dd cd 9c 3d
       0.041996084 -0.021570882 -0.00797159 0.07656453
000360 80 f6 bf 3d 4e 82 72 3d db aa 86 bc fb 9e cf bd
       0.09373188 0.0592063 -0.016438892 -0.10137745
000370 89 64 9e 3d ad 72 31 bd 97 45 23 3d dd 7e 3c bd
       0.07734019 -0.043322254 0.039861288 -0.046019424
000380 19 98 96 bc 21 e6 80 3d c4 90 1c 3d f6 b8 b1 bd
       -0.018383073 0.062938936 0.038223997 -0.086778566
000390 c3 86 5e bd 51 d9 62 3d 73 69 b7 3c a5 97 98 bd
       -0.054327738 0.05538303 0.02238915 -0.07450799
0003a0 ec 86 97 3d a3 71 b1 3d 07 9e 47 bd 32 f7 e9 3d
       0.07398781 0.086642526 -0.04873469 0.11424102
0003b0 26 90 db 3d 46 f5 d9 bd fe 3c c5 3b a1 4b 17 bc
       0.107208535 -0.10642485 0.0060192337 -0.00923434
0003c0 fc 47 fa 3d f9 06 9b 3d a5 c2 21 bd 64 40 f7 3c
       0.12220761 0.07569689 -0.039492268 0.030182071
0003d0 d1 18 da bc e3 80 95 bd f4 70 c4 3c a1 63 d5 bc
       -0.026623162 -0.07299974 0.023979641 -0.026048483
0003e0 ef fa 66 bd 08 46 ba bc 98 cf 8a bd 1a 9c b7 bd
       -0.056391653 -0.022738472 -0.067778766 -0.08965321
0003f0 a0 25 52 be 03 14 57 bc 56 c0 10 3d d1 17 b2 3c
       -0.20522165 -0.01312733 0.035339676 0.021739872
