Parameter/bottleneck1_layer/weights/5_depthwise.npy (npy, 12224 bytes, 1 tensors)

array f4 [1, 3, 3, 336, 1]
00000000: 9028 943a e9e9 3fbd 1eed e9bb 18d0 6d3c
00000010: 122a 94bd d272 f9bc bb31 1dbd 6773 383d
00000020: b044 54ba 4c3b 453d bc62 a23d 9449 5c3c
00000030: 7630 1b3d a6d6 e73c 3221 0abd 5829 dfbb
00000040: d70d 51bc 5c60 c8bb aee0 8fbc 0888 f13c
00000050: d349 483d f8a3 353b 0e28 91bc 68f4 47bd
00000060: 0307 02bd 72c1 b23d 8cc6 3c3d 70d1 0fbd
00000070: 8915 343d 9a57 8dbc 3a1a dcbc ebd7 243d
00000080: 94f0 a0bc 74c6 3cbd 39ee afbd 4b17 11bc
00000090: f3d3 c43c 2b59 29bd dcc6 a8bc 9913 cebc
000000a0: 1fcd 673d cdc2 323c 6f21 b3bc 62cd 683c
000000b0: 0034 b3bc 0e28 d6bc 34b3 c43c 90e1 16ba
000000c0: 989d 32bd 48e1 1e3c 762d 713c 947a 883c
000000d0: 0007 56ba 98f1 27bd dc06 14bd 4048 0cbd
000000e0: 0eb3 25bd c18b 853c 727c a0bc 60ae f7ba
000000f0: 3e1c f43c e0b7 e7bc 4abc 493d 28fe fcbb
00000100: 60ba f9bc ff8c 2c3d 3619 2dbd 458b f1bc
00000110: 07a2 02be c841 b13d 7703 09bd 5b74 433d
00000120: 4513 b53c 31c8 473d c5db 7d3d fc75 99bd
00000130: 640b d5bc f015 4a3c fcda cb3c 4eda 0b3d
00000140: a0fc c8ba d6bf 493d 6497 38bd 6fc0 0fbd
00000150: 545a cebc a286 92bc 0a1c f93c 76c2 d0bc
00000160: d640 b73b d5eb 05bd 3c43 84bc 3f02 c9bc
00000170: 58bb 133b e090 c63b 16d4 ab3c ab21 77bd
00000180: 0edc 9c3d 440a cc3c 2a3c e33d 37bc 3e3d
00000190: 5000 203c 5019 ec3b 42b2 e4bd 5849 e6bc
000001a0: e211 1abd c424 493d 0b1a c53b aeff 7cbd
000001b0: 1cc0 92ba 6fb7 10bd 4d4e 143d 7187 94bd
000001c0: 7405 58bd 84cb 5b3b f187 2e3d 205b ccbc
000001d0: 88d2 e2bc 7019 e3bb 8203 6e3c c2a2 053d
000001e0: 1e38 f43c e0e1 cf3c efff 96bc fde9 0ebd
000001f0: f814 7b3d 58a9 44bd 93cc 973c a8c9 233d
00000200: 181a 583c b5c6 343c 24fb 7b3d 5b86 0d3d
00000210: e1cb 553d 6895 893d 586c 5d3d 2823 073d
00000220: 101f 72bc f5e5 1a3d 1275 8f3c 6ee8 d8bc
00000230: 7800 1a3d 78bc a4bc 8b15 17bd 360f 0d3e
00000240: f32b 5ebc c6e5 b9bd 180a 16bc 30ad bcbb
00000250: 985b cf3b 1984 6ebc 0aa9 93bd 2c03 963d
00000260: 2e4b 3e3d 117f 00bd 90b1 50be 684e 8d3c
00000270: 3b3c 3e3d 13ba 2bbd 460d a1bb c27d dd3c
00000280: 9233 80bd ff09 423c d52a 39bc b28f 0c3d
00000290: 4bb5 4e3d f655 0ebd cc16 c4bc b3a7 2abc
000002a0: c8c4 323c 9c98 a83d 9e7c 073d 9a9a 8a3d
000002b0: 7c81 1cbc 3076 27bc cd55 cbbc b06d d3bc
000002c0: c902 3d3d b09a e53c d424 b83d 8cf3 733e
000002d0: 07de eb3c 92f7 983c c658 8cbd fc76 c4bc
000002e0: aefe f03b b887 3bbc d45d 7bbb 0afb cd3d
000002f0: f2cd 34bd 1067 a8bc e0ed 86bd c0df 59ba
00000300: e208 a8bd 1fb9 d6bd 08bc c83b 9931 f83d
00000310: 50e1 553c 64bf 143c 7222 65bc f26c 5f3c
00000320: 2b2a 4f3d acf4 c4bc 4822 983d 74a4 f43c
00000330: 57aa 2ebd 4db6 63bd f4fc bebb 2963 94bd
00000340: 80b0 543d a30f 853c 0eb2 89bc 76ed d7bc
00000350: e891 28bc 1760 203d 8e02 bc3d 1e04 a8bc
00000360: f669 273e 5d3d 6bbc 789c e13c 2a86 bebc
00000370: 6055 79bd 51da 8a3d d813 b03c eb97 17bd
00000380: 2929 7e3d 4d79 2dbd 00ca 6ebd 7cd6 f83b
00000390: c345 e1bd a5a6 0dbd 384f 633c 4e52 ff3c
000003a0: bfc0 7e3d 56a0 a8bd 9e30 f2bd 8cef 153d
000003b0: 747b b1bb e209 a73c 11dc 1fbd d42e 01be
000003c0: 4442 91bb 0a1e 22bd 2b87 b5bc 31e9 303d
000003d0: 0815 6ebc a590 87bd 7a65 363c 5e0c 4abc
000003e0: 3115 9e3c 1bca 78bc a5ea f3bc 6aa0 b7bd
000003f0: a808 9ebd beb4 113d 1da7 7b3c 965a 6a3c
0.0011303592 -0.046853933 -0.0071388623 0.014514945 -0.07234587 -0.030450258 -0.038377505 0.04503193
-0.00080973934 0.048152253 0.07928988 0.013445277 0.037888013 0.028300595 -0.033723064 -0.0068103485
-0.012759647 -0.0061150026 -0.01756319 0.02948381 0.04889853 0.0027716141 -0.017719295 -0.04881707
-0.03174497 0.08728303 0.046087787 -0.035111845 0.04396585 -0.017253686 -0.026867975 0.040244978
-0.019645967 -0.046087697 -0.08590359 -0.008855651 0.024026847 -0.041344803 -0.020602636 -0.02515583
0.056592103 0.010910702 -0.021866528 0.014209123 -0.021875381 -0.026142146 0.024011232 -0.00057556573
-0.043607324 0.009697266 0.014720311 0.016660012 -0.0008164495 -0.041001886 -0.036139354 -0.03424859
-0.040453963 0.016301991 -0.01959059 -0.0018896572 0.029798623 -0.02828592 0.049251832 -0.0077207275
-0.030484378 0.04212665 -0.04226037 -0.029485354 -0.12757121 0.08655125 -0.03345057 0.047718387
0.022103915 0.0487749 0.061977167 -0.07493207 -0.026006408 0.012334332 0.024884693 0.03414374
-0.0015334077 0.049255215 -0.045066252 -0.03509563 -0.025189556 -0.017886464 0.030408878 -0.025483351
0.005592446 -0.03269561 -0.016145341 -0.024537204 0.0022542085 0.006059751 0.020975154 -0.060334843
0.076591596 0.024907239 0.1109546 0.046566214 0.0097656995 0.007205166 -0.111668125 -0.028111145
-0.03761471 0.049107328 0.0060150675 -0.061767273 -0.0011196169 -0.035331186 0.036207486 -0.07252396
-0.052739576 0.0033538053 0.042610113 -0.024945796 -0.02768828 -0.0069305226 0.0145272035 0.03262592
0.029811915 0.02537626 -0.018432586 -0.034891117 0.061299294 -0.04801306 0.018530166 0.039987236
0.013189815 0.011033704 0.061518803 0.03455196 0.052196387 0.0671795 0.054058403 0.032992512
-0.014777914 0.03781696 0.017511878 -0.026478019 0.037598103 -0.0201094 -0.03688578 0.13775334
-0.013560283 -0.09077029 -0.00915768 -0.0057579502 0.0063280575 -0.014557862 -0.07209976 0.07324824
0.046458416 -0.03137118 -0.20380235 0.017249301 0.04644416 -0.0419255 -0.0049149124 0.027037505
-0.06259836 0.011843204 -0.011301716 0.034316726 0.050465863 -0.034749947 -0.023936652 -0.010415959
0.010911174 0.08232233 0.03307783 0.06767769 -0.009552356 -0.010221049 -0.024821186 -0.025809139
0.046145234 0.028027862 0.089913994 0.23823375 0.028792394 0.018672738 -0.0685287 -0.023982517
0.007354579 -0.011445932 -0.0038355486 0.100576475 -0.044141717 -0.020556957 -0.0658834 -0.00083112344
-0.08204819 -0.10484528 0.0061259307 0.12118835 0.013054207 0.009078834 -0.013985263 0.013636814
0.050577324 -0.02404245 0.07428414 0.029863574 -0.042642917 -0.055593777 -0.005828494 -0.07245476
0.051926136 0.016242808 -0.016808536 -0.026358347 -0.010288693 0.03915414 0.09180175 -0.020509776
0.16349015 -0.014357892 0.02754043 -0.023257334 -0.060872436 0.06779922 0.021493837 -0.037010115
0.062050972 -0.04235201 -0.05829811 0.007593928 -0.10999634 -0.034582753 0.013873868 0.031167176
0.062195536 -0.08233707 -0.11825679 0.036605403 -0.005416328 0.020390455 -0.03902823 -0.1261552
-0.0044329483 -0.03957943 -0.02215918 0.04319114 -0.014531381 -0.06619386 0.011132592 -0.01233205
0.019297214 -0.015184904 -0.029774973 -0.089661434 -0.07716495 0.03557276 0.015359667 0.014303824
