Parameter/bottleneck1_layer/weights/8_conv2d.npy (npy, 53888 bytes, 1 tensors)

array f4 [1, 1, 1, 336, 40]
0	0xbc10de62	-0.008842083
1	0xbc0b9dff	-0.008521556
2	0xbd585702	-0.052817352
3	0x3d918a88	0.07106501
4	0xbd147ed0	-0.03625375
5	0xbdd5cd14	-0.10439506
6	0x3dc51fdf	0.096252196
7	0x3da54bb9	0.080710836
8	0x3c61a7d8	0.013772927
9	0x3e082aa1	0.13297512
10	0xbd39b70c	-0.045340583
11	0xbd9bdd47	-0.07610565
12	0x3c5090cb	0.012729834
13	0xbd62c9a5	-0.055368084
14	0xbd34da40	-0.044153452
15	0xbd839e15	-0.06426636
16	0xbdf00944	-0.11720517
17	0xbd7fddee	-0.062467508
18	0xbbad8fd9	-0.005296689
19	0xbc0bf644	-0.008542601
20	0x3d8093c0	0.06278181
21	0x3dd48e01	0.103786476
22	0xbdca1204	-0.098667175
23	0xbb04f578	-0.0020287912
24	0xbd3736af	-0.044729885
25	0x3d090461	0.03345144
26	0x3d4bcf8e	0.049758486
27	0xbda47fce	-0.08032189
28	0xbdefaed8	-0.11703271
29	0x3de2c0db	0.110719405
30	0x3ddaf148	0.10690552
31	0x3c060c23	0.008181605
32	0x3e00ee3f	0.12590884
33	0xbbfe31bf	-0.007757395
34	0x3adc46f3	0.0016805812
35	0xbd217cad	-0.03942554
36	0x3d4699c5	0.04848649
37	0x3deefed2	0.11669697
38	0xbdea8dfd	-0.11452863
39	0xbda5c3ee	-0.08094011
40	0x3deb6817	0.11494463
41	0x3ddd2215	0.10797516
42	0xbd9925ad	-0.07477889
43	0x3dcf7c75	0.1013116
44	0xbd066c85	-0.032818336
45	0xbdb00778	-0.085951746
46	0x3dc85a5c	0.0978286
47	0x3dd78e15	0.10525147
48	0x3dbe9330	0.093054175
49	0x3d964da7	0.0733903
50	0xbd81096b	-0.063006245
51	0x3d836176	0.064150736
52	0x3d12b227	0.03581443
53	0x3d1e580d	0.03865819
54	0x3db39571	0.08768738
55	0xbb3d5b6d	-0.0028893605
56	0x3d7c6964	0.061623946
57	0x3d41ed8e	0.04734569
58	0xbde76192	-0.11297907
59	0x3cb4bc90	0.02206257
60	0xbc6357ff	-0.01387596
61	0xbdb64948	-0.08900696
62	0xbd85a65a	-0.0652587
63	0xbc4b3118	-0.012401842
64	0xbdf41b90	-0.1191932
65	0x3db9d9ff	0.090747826
66	0x3d156646	0.03647449
67	0x3d164209	0.03668407
68	0x3b9fcd5b	0.004876775
69	0x3dabecfb	0.0839481
70	0xbcc4cbb3	-0.024022913
71	0xbde42711	-0.11140264
72	0x3de42e65	0.111416616
73	0xbdbd0b1f	-0.09230637
74	0x3d10a1b0	0.035310447
75	0x3dfbbc42	0.12291767
76	0xbd4efbbf	-0.050533053
77	0x3d688605	0.056768436
78	0xbd91ccb4	-0.07119122
79	0x3de08b45	0.109640636
80	0x3dd56a7d	0.10420702
81	0xbdf9eeb7	-0.12203734
82	0x3cfd743e	0.030939218
83	0x3d1ab89b	0.03777371
84	0xb9b9f600	-0.00035469234
85	0x3b61786e	0.0034404057
86	0xbd1999d8	-0.037500232
87	0xbd7e5346	-0.062091134
88	0xbc1321ba	-0.008980209
89	0xbd9ffcae	-0.07811867
90	0xbcd29f81	-0.025710823
91	0x3b464f20	0.0030259565
92	0xbd967c97	-0.073479824
93	0xbdba6c68	-0.09102708
94	0xbd29ec9f	-0.041485425
95	0xbd51cb5f	-0.05121934
96	0x3d4c4916	0.049874388
97	0xbdbc8a98	-0.09206122
98	0x3dba68f3	0.09102049
99	0xbd96fadd	-0.07372067
100	0x3dcd3260	0.10019374
101	0x3d8d8d41	0.06911708
102	0xbccce28d	-0.025010372
103	0x3dbfed57	0.09371441
104	0x3c95ed10	0.018301517
105	0x3d3c12f1	0.0459165
106	0xbd82cc62	-0.06386639
107	0xbdbc7180	-0.09201336
108	0x3dedb366	0.11606483
109	0x3d7f66e5	0.062353987
110	0x3ddd61f0	0.10809696
111	0x3d74262a	0.05960671
112	0x3dc9cdc3	0.09853699
113	0x3c2296f2	0.0099236835
114	0xbd304bdc	-0.043041095
115	0x3dccaf95	0.09994427
116	0xbcbb6d20	-0.022879183
117	0xbdb6df1c	-0.089292735
118	0xbdaa6b02	-0.08321191
119	0x3ddfaae8	0.1092127
120	0x3ce2d67a	0.027690161
121	0xbc04f758	-0.008115612
122	0xbdc7faa6	-0.09764604
123	0x3dd78745	0.105238475
124	0x3da6b744	0.08140424
125	0x3d6c5c94	0.057705477
126	0x3d935566	0.07194023
127	0x3ccd14fd	0.025034422
128	0xbdea7fbc	-0.11450145
129	0x3dd2c7ad	0.102919914
130	0x3de5742d	0.112037994
131	0xbd89b9a9	-0.06724865
132	0xbc58b5d2	-0.013226943
133	0xbdf0397a	-0.11729713
134	0xbdd859d3	-0.105640076
135	0xbabbd95c	-0.0014331746
136	0x3dc7c7ba	0.09754892
137	0x3d4dfbc6	0.050288938
138	0x3be6c118	0.0070420615
139	0xbd951789	-0.072798796
140	0x3c572f77	0.013133875
141	0x3d870a1b	0.06593724
142	0x3d8d088d	0.068863966
143	0xbca5c1b5	-0.020233968
144	0xbd756abd	-0.059916247
145	0xbd3219b4	-0.043481544
146	0x3bac0150	0.00524918
147	0x3d804a65	0.0626419
148	0x3c9b6800	0.01897049
149	0x3db85fb7	0.09002631
150	0xbdee08df	-0.11622786
151	0xbdb6e53b	-0.08930441
152	0xbd417912	-0.047234602
153	0xbde91d13	-0.113824986
154	0xbd89a049	-0.06720025
155	0xbe044cc4	-0.12919909
156	0x3dccadb9	0.099940725
157	0x3d9df1fa	0.07712169
158	0xbdb4b488	-0.08823496
159	0x3d87c428	0.06629211
160	0x3d4e1551	0.050313298
161	0x3d15afdb	0.036544662
162	0xba3a8060	-0.0007114466
163	0xbd19b0cc	-0.037522122
164	0x3dad187f	0.08451938
165	0xbdc7e4c1	-0.09760428
166	0x3d44d928	0.04805866
167	0x3a88b354	0.001042942
168	0xbd0dc438	-0.034610957
169	0xbcbbddce	-0.022932913
170	0xbb050e42	-0.0020302688
171	0x3de83680	0.1133852
172	0xbd147b04	-0.03625013
173	0x3ca424a4	0.020037003
174	0x3bb23a0b	0.005439048
175	0x3dc77d75	0.09740726
176	0xbd126033	-0.035736274
177	0x3d1ab260	0.037767768
178	0xbd01ced0	-0.031691372
179	0xbd91ccb5	-0.07119123
180	0xbd76eb1b	-0.060282808
181	0xbd8ddc2b	-0.06926759
182	0x3d71c8cb	0.05902938
183	0x3d6516d2	0.055929966
184	0x3d44d799	0.048057172
185	0x3d7300fc	0.05932711
186	0xbd230c5d	-0.039806712
187	0x3de89563	0.11356618
188	0xbcbe3f00	-0.0232234
189	0x3dccbea6	0.09997301
190	0xbdba0d61	-0.09084583
191	0xbc31a477	-0.010842434
192	0xbca82f86	-0.020530473
193	0xbbad688f	-0.0052920054
194	0xbdf5d001	-0.12002564
195	0xb968b390	-0.00022192136
196	0xbcaf0072	-0.021362517
197	0xbcad4890	-0.021152765
198	0x3d1a884b	0.037727635
199	0x3cce2843	0.025165683
200	0xbdf6dff4	-0.120544344
201	0x3dc0c46d	0.09412465
202	0x3df1d190	0.11807549
203	0x3da3b704	0.07993892
204	0x3d429f29	0.04751507
205	0x3dfd3549	0.12363679
206	0xbe0114a1	-0.12605526
207	0xbb8d6881	-0.0043154364
208	0x3dae1f84	0.08502105
209	0xbdb68804	-0.08912662
210	0x3d820079	0.063477464
211	0xbc9fa54e	-0.019488003
212	0x3dfbedf0	0.12301242
213	0x3c15d520	0.009145051
214	0x3d965294	0.07339969
215	0x39aa2280	0.0003245063
216	0xbdb35628	-0.087566674
217	0xbcb57f1d	-0.022155339
218	0x3dc1c9d0	0.09462321
219	0x38fac440	0.000119574834
220	0x3d6fae4a	0.058515824
221	0xbd7e17c3	-0.06203438
222	0xbda4853a	-0.080332235
223	0xbdc7f992	-0.09764399
224	0xbd905539	-0.07047505
225	0x3d88d608	0.06681448
226	0xbe005ecb	-0.1253616
227	0xbd0cd69c	-0.034384355
228	0xbd8427b4	-0.06452885
229	0xbdbe02e6	-0.092778966
230	0xbdefffe9	-0.11718733
231	0x3db938ff	0.09044074
232	0x3dca52fe	0.09879111
233	0x3db7be7f	0.08971881
234	0x3dc7f1a3	0.097628854
235	0xbd88a75a	-0.06672545
236	0xbc739580	-0.014867187
237	0x3d3e1537	0.04640695
238	0xbdf7da2b	-0.12102159
239	0xbdb839f8	-0.08995432
240	0xbdb7839f	-0.089606516
241	0xbca62dc6	-0.020285498
242	0xbd33f514	-0.043934897
243	0x3ddf7c8c	0.10912427
244	0xbdd8ec2f	-0.105919234
245	0x3d9771e6	0.07394771
246	0x3dec851a	0.115488246
247	0x3ccf8330	0.02533111
248	0x3c9b133c	0.01893007
249	0xbdee1ee4	-0.11626986
250	0xbb92c89d	-0.0044794814
251	0xbd252498	-0.0403181
252	0xbcd33ca6	-0.025785755
253	0xbde12dc9	-0.10995061
254	0xbd3aee41	-0.045637373
255	0xbe00703a	-0.12542811
