Parameter/bottleneck1_layer/weights/9_batch_variance.npy (npy, 768 bytes, 1 tensors)

array f4 [4, 40]
000000 f5 2c 7d 3f d3 51 7e 3f e0 56 80 3f 41 8f 80 3f
       0.98896724 0.99343604 1.0026512 1.0043718
000010 6d df 80 3f c0 25 7e 3f 28 85 7d 3f 7e 2c 81 3f
       1.0068184 0.9927635 0.99031305 1.0091703
000020 a6 c4 80 3f e7 6f 7f 3f 00 8b 7d 3f c9 48 7e 3f
       1.0060012 0.99780124 0.9904022 0.9932981
000030 ab b9 80 3f 4f 5d 7f 3f af fc 80 3f c9 30 81 3f
       1.0056661 0.9975175 1.0077113 1.0093013
000040 62 e0 7d 3f 87 72 7f 3f f6 3f 80 3f a6 0f 80 3f
       0.99170506 0.9978413 1.0019519 1.0004776
000050 af 1f 81 3f 7c f9 7f 3f 38 36 81 3f 46 7d 7d 3f
       1.0087794 0.9999006 1.0094671 0.9901928
000060 70 6b 80 3f 0a 9c 7f 3f 09 c6 80 3f c0 64 7e 3f
       1.0032787 0.9984747 1.0060436 0.9937248
000070 b0 34 7f 3f 77 d3 7f 3f b6 9f 7f 3f 68 67 7d 3f
       0.9968977 0.99932045 0.99853075 0.9898591
000080 c6 5e 7d 3f ce c6 7e 3f a7 19 7e 3f d2 f7 80 3f
       0.9897274 0.995221 0.9925789 1.0075629
000090 b3 e4 80 3f e2 3f 7d 3f 90 36 81 3f d8 47 81 3f
       1.0069793 0.989256 1.0094776 1.010005
0000a0 0a d7 23 ae cc cc 4c 2f ae 47 e1 2f 7b 14 ae 2f
       -3.7252902e-11 1.862645e-10 4.0978193e-10 3.1664968e-10
0000b0 29 5c 8f 2f b8 1e 85 2f 8f c2 f5 af 29 5c 8f af
       2.6077032e-10 2.4214386e-10 -4.4703483e-10 -2.6077032e-10
0000c0 3d 0a 57 b0 b8 1e 85 2f a4 70 3d b0 99 99 99 af
       -7.8231094e-10 2.4214386e-10 -6.891787e-10 -2.7939676e-10
0000d0 c2 f5 28 30 99 99 19 30 8f c2 f5 af 70 3d 0a 30
       6.1467287e-10 5.587935e-10 -4.4703483e-10 5.0291415e-10
0000e0 29 5c 0f 2f eb 51 38 af cc cc cc 2e 0a d7 23 ae
       1.3038516e-10 -1.6763806e-10 9.313225e-11 -3.7252902e-11
0000f0 00 00 00 00 e1 7a 14 b0 b8 1e 85 af 70 3d 0a b0
       0.0 -5.401671e-10 -2.4214386e-10 -5.0291415e-10
000100 0a d7 a3 2d 29 5c 8f af 66 66 66 b0 5c 8f c2 2f
       1.8626451e-11 -2.6077032e-10 -8.381903e-10 3.5390257e-10
000110 0a d7 23 ae 8f c2 75 af 0a d7 a3 ad cc cc cc ae
       -3.7252902e-11 -2.2351741e-10 -1.8626451e-11 -9.313225e-11
000120 eb 51 b8 2f 8f c2 f5 ae 8f c2 75 af 52 b8 1e b0
       3.352761e-10 -1.11758706e-10 -2.2351741e-10 -5.7742e-10
000130 52 b8 1e 30 29 5c 8f af 00 00 00 00 99 99 99 af
       5.7742e-10 -2.6077032e-10 0.0 -2.7939676e-10
000140 c7 2c 48 bc 4a 18 20 3e 59 7d 5e be d6 ad a1 be
       -0.012217707 0.15634266 -0.21727504 -0.3157794
000150 2f ef d3 3e 2f c7 38 bf b8 ce d3 3e 9c 37 34 3e
       0.4139342 -0.7217893 0.4136865 0.17599338
000160 c1 28 69 bf 1b 96 8e 3f 36 7b 7d bf 71 37 05 bf
       -0.9107781 1.1139559 -0.9901613 -0.5203772
000170 8e f7 b9 3d 80 1e 23 3d d3 6b 47 3e ad d0 a8 be
       0.090804204 0.03982401 0.19474725 -0.32971707
000180 6c c1 8c be f7 76 8d 3e b4 f6 bc 3c 83 94 33 bf
       -0.2749132 0.27629825 0.023066856 -0.70148486
000190 dd 98 ab 3e 30 3e 19 be 6e 04 0d bf aa cc 4c 3e
       0.33515063 -0.14965129 -0.55084884 0.19999948
0001a0 3a 07 27 3f e0 71 00 be 70 71 36 3e 2f 21 d3 bd
       0.652454 -0.1254344 0.1781671 -0.10309064
0001b0 11 ad f5 be 95 df 3a 3f d7 e7 ab be b2 bb 15 3f
       -0.47983602 0.7299741 -0.33575317 0.58489525
0001c0 1e bc b7 bd cd 86 1b 3e 31 45 83 be 8f c5 5f 3d
       -0.089714274 0.15188141 -0.25638726 0.054631766
0001d0 53 5f 35 3e 79 56 8e be 8e f5 81 be 03 f3 59 3e
       0.17712145 -0.27800348 -0.25382656 0.21284108
0001e0 d3 8e 17 3f 7c 5c 05 3f c0 e7 b8 3d e8 36 9b 3d
       0.5920231 0.52094245 0.09028578 0.07578832
0001f0 44 73 be 3e c4 25 2a 3e 18 cb 19 3f 98 4b 2c 3e
       0.37197316 0.16615969 0.6007552 0.16825712
000200 84 28 67 3e b4 fb 4f 3e f9 d2 a1 3f b0 2c 5f 3e
       0.22574049 0.20310861 1.2642509 0.2179439
000210 cd 68 13 3f c0 bf 84 3d f0 93 d5 3e 9a 67 d5 3e
       0.5758179 0.06481886 0.4171443 0.41680604
000220 88 59 f3 3d c8 63 b1 3d 28 53 f3 3d d8 a4 7d 3e
       0.11882311 0.0866161 0.11881095 0.24769914
000230 50 02 91 3f e0 1a c9 3d 98 6e 40 3f 5d 9c c3 3f
       1.1328831 0.09819579 0.7516875 1.5282093
000240 c0 e9 22 3e 14 b0 0c 3e e4 b5 0a 3e 24 bc f3 3e
       0.15909481 0.13739043 0.13545948 0.47604477
000250 10 17 54 3e f4 f5 4e 3e 18 53 be 3e 68 00 30 3e
       0.20711923 0.20211011 0.3717277 0.17187655
000260 ab 54 05 3f 60 20 80 3e 42 ed a5 3e 4a 0e 96 3e
       0.5208232 0.250247 0.32407576 0.29307777
000270 90 cd 0c 3e 3e 4e 28 3f 42 f9 93 3e 64 4c ee 3e
       0.13750291 0.6574439 0.28901106 0.46542656
