Parameter/DwConv/weights/1_depthwise.npy (npy, 8768 bytes, 1 tensors)

array f4 [1, 3, 3, 240, 1]
00000000: 7ebf 293d 1c4e 553d d473 ce3d 8168 8b3d
00000010: c021 503d 9f93 1d3d cf4e f93c cf71 6c3c
00000020: 2e21 b33d 248b d23b c6c3 253d 5cbf ff3b
00000030: 6c62 493c 2e94 1e3d dc8b 9e3d f58c 253d
00000040: 0030 78b8 04c7 8c3c 228b 653d 58ef 9a3c
00000050: efab 9ebc b61e 3d3d b971 603c e096 0ebd
00000060: 4c30 863d da91 973d 4c46 d73c 671f 423d
00000070: 7075 cb3d 6446 453d 53f7 cc3c 10ef 55bd
00000080: a136 05bd 5e10 fd3b 4553 533d 0224 1e3c
00000090: b106 d2bc be53 bf3b 149a 533d dc3e 23bc
000000a0: 8f16 8b3c f46c f93c 34ea 113d 2e03 0d3b
000000b0: 5586 1e3e 64b4 0a3d 74a5 c53c b794 dd3c
000000c0: 82e7 b4bb 3e36 533d e257 a03d c8d5 da3d
000000d0: c812 823b ed80 da3c 019a a2bc b800 8e3d
000000e0: ce03 6cbd eb61 f5bc add9 0c3d 94e7 963c
000000f0: 18ae a53d e0cb 3e3a 9c4d c53c 61a5 c13d
00000100: 02ce 84bc 08fa f63b f128 d13c c5ff 123d
00000110: ac46 d03d 18b2 893c 3d9a 11bd 7aa4 bb3c
00000120: 28f0 233d 9c85 1b3e 1ab5 943b 686a c5bc
00000130: 21d9 723d 17c9 623d 2b00 413d 14dd 2b3d
00000140: 8306 ae3c cade 3c3e 8a52 6b3d 24fb fc3c
00000150: 6a3b 14bd 7422 273d 26e0 adbc 4025 133c
00000160: 5b92 2cbc f128 7b3d faa6 863d 4a95 943d
00000170: 9899 503b c9b1 993d 9716 a13d ed59 62bd
00000180: 0cbe 363d 4475 953d 4642 af3d 3bf1 193e
00000190: 0e15 55bd f97d 873d e827 a93d 9dff 633d
000001a0: 0a14 843c 2b76 353c a6f5 423d 3ed8 053e
000001b0: 4427 883b 000b 6fbb 0753 16bb 2d2d f03c
000001c0: 266b 283e 5059 0c3d 063c 9dbc c59b 443d
000001d0: 5c7e 023d ce16 183d 592f b23d 5f5a a13c
000001e0: b302 483d 6795 b03c 2086 923c 8aec b53d
000001f0: 0e7f 913d 9462 1a3d 605b 9d3b 4a2b af3c
00000200: 4a71 afbc 424c bcbb a00b 9bbb 3e46 ab3c
00000210: 8623 203d 5c2a 953d 7f3c c23d fdf4 ea3d
00000220: 1439 943d 0080 373c 44c2 3e3c d465 a4bb
00000230: c245 993d 407c 3e3b 5357 3d3d 9491 113d
00000240: 3516 2fbd 1877 2fbc 427f 5f3d b204 6dbc
00000250: f403 9c3d 5204 423e 44cc 463d e66e bc3c
00000260: 0c1f 93bb 80b6 bdba 2631 a23c b043 9c3d
00000270: 8e52 e73c 0a05 b53d b8ce 4d3d 6ebe 833c
00000280: b0de 953d 688f 483d 7cf1 c83b 4855 10bd
00000290: 923a a53b 8034 3f3d 5cff 243d f23c 8b3c
000002a0: 60f1 e03b 3ae3 b53c cc21 d03d 3d27 0d3d
000002b0: aa03 3cbd cd3b acbc 18c8 06bc 1e3b e53d
000002c0: ac85 1e3d 5444 143b 47c0 243d 8ea9 d13c
000002d0: e9cc 083e 1ca9 023e 3c9d 173e 9013 073d
000002e0: 0dcc b83c d3eb 3e3d 008f 7a3a a6f9 433d
000002f0: b93f 473d 2f56 343d cc52 bb3d 1c45 1f3b
00000300: 7467 053d f965 213d 2ee2 d13c fb65 853c
00000310: 4b5c 7e3d fc05 41bc 9830 c4bb cc25 113d
00000320: 894a 18bc 6b37 0f3d 9348 c13d f2ce 30bd
00000330: d0d1 613d 7087 d03d 7f50 75bc 2e4d 063d
00000340: 06e3 05bc 973f fe3c a084 903d 4204 bb3d
00000350: cde3 9a3d 5998 c13d 6c00 863d 7a0d 87bc
00000360: b12d 133d 0a7e b53c ad88 17bd 6c17 05bc
00000370: 7c01 3e3c 448d cd3d 0fa9 5f3d bc69 cc3b
00000380: 68c9 2a3d 70c6 023d 128b 7b3d 26b1 3f3c
00000390: 8cfc c73c ee89 713c 9080 ee3c 502a 76bb
000003a0: 924b a83b 4653 3bbc 04f1 3cbc 6095 71ba
000003b0: 16ce d23d c2c6 203c bccc 803c d21a 8d3d
000003c0: d033 88bb 3950 373d 90af 763c 4e89 a13d
000003d0: 52b8 283d 907a ab3d b447 363d 54d4 62bb
000003e0: 16c9 633d 00e0 4ab9 44ad 133d 2ec6 603d
000003f0: 431f 123d b2bb 023e fe9e 143e d152 b33c
0.041442387 0.052076444 0.10080686 0.06807042 0.050813437 0.03847086 0.030433087 0.014431431
0.08746563 0.0064252783 0.040469907 0.0078047942 0.012291532 0.038715534 0.0774152 0.04041763
-5.917251e-05 0.017184742 0.05604089 0.018912956 -0.019369094 0.046171866 0.013698989 -0.034811854
0.06552181 0.07400866 0.026278637 0.04739323 0.09934509 0.048162833 0.025020277 -0.05222994
-0.0325228 0.0077228984 0.051593084 0.00965214 -0.025637956 0.0058388403 0.051660612 -0.009963717
0.01697853 0.03044746 0.035623744 0.0021516788 0.15480931 0.03386344 0.024126746 0.027048452
-0.005520762 0.0515654 0.07829262 0.10685307 0.003969524 0.026672805 -0.019848825 0.06933731
-0.057620816 -0.029953917 0.03438728 0.018420972 0.080898464 0.00072783045 0.024084859 0.09455372
-0.016211513 0.0075371303 0.025532218 0.035888452 0.101697296 0.016808555 -0.035547484 0.022905577
0.040023953 0.15187687 0.0045381906 -0.02409859 0.0592891 0.055367555 0.0471193 0.041958883
0.02124334 0.18444362 0.057451762 0.030881472 -0.036189474 0.04080434 -0.021225046 0.008981049
-0.010532941 0.06131834 0.06574817 0.07255037 0.003182983 0.07504613 0.07865637 -0.05526154
0.044614837 0.07297757 0.085575625 0.15033428 -0.052022032 0.06615824 0.08259565 0.055663694
0.016122837 0.011075537 0.04759755 0.13070771 0.0041550715 -0.0036475062 -0.0022937672 0.029318416
0.16447124 0.034264863 -0.01919366 0.048000116 0.031858787 0.037131123 0.08700437 0.019696413
0.0488307 0.021555616 0.017886221 0.08883007 0.07104312 0.037691668 0.0048021525 0.021382947
-0.021416325 -0.0057463953 -0.0047316104 0.020907518 0.039096378 0.0728347 0.09484195 0.11472509
0.07237449 0.011199951 0.011642996 -0.0050170217 0.07484008 0.0029065758 0.046225857 0.035539225
-0.042745788 -0.0107095465 0.054564722 -0.0144664515 0.076179415 0.1894696 0.048534647 0.0230021
-0.004489785 -0.0014473945 0.019798826 0.07630098 0.028237607 0.08838852 0.05024597 0.016082015
0.07317865 0.048964888 0.006132303 -0.03523758 0.0050423825 0.046680927 0.040282592 0.016996834
0.0068647116 0.022203077 0.10162696 0.03446125 -0.04590193 -0.021024609 -0.008226417 0.11192916
0.0387017 0.0022623735 0.040222432 0.025593545 0.13359417 0.12759823 0.14806074 0.03297764
0.022558236 0.04661162 0.0009558052 0.047845505 0.048644755 0.044027504 0.091466516 0.0024302667
0.032569364 0.03940389 0.025620546 0.01628398 0.062099736 -0.011781212 -0.005987238 0.035436437
-0.009295114 0.03496496 0.094376706 -0.04316611 0.055131733 0.10182083 -0.014972805 0.032788448
-0.008171802 0.031036181 0.07056546 0.091316715 0.07562981 0.09452886 0.06543049 -0.016485918
0.035932247 0.022154827 -0.03699558 -0.00812326 0.011597034 0.1003671 0.054604586 0.0062381905
0.041695982 0.031927526 0.061411925 0.01169995 0.024412416 0.014742358 0.029114038 -0.0037561841
0.005135962 -0.011433428 -0.011532072 -0.0009215679 0.10293214 0.009813013 0.015722625 0.06889881
-0.004156567 0.04475424 0.015056506 0.07887517 0.041191407 0.08372986 0.044501975 -0.003461142
0.055611692 -0.00019347668 0.03605391 0.0548765 0.035674345 0.12766913 0.14513776 0.021890076
