Parameter/Conv_3v3/weights/2_conv2d.npy (npy, 27776 bytes, 1 tensors)

array f4 [1, 3, 3, 3, 256]
000000 90 52 0b 3d d6 db 25 3d 18 57 81 3d 64 13 3e 3e
       0.034014285 0.040492855 0.0631544 0.18562084
000010 0c 4d 75 3d 01 e7 10 3d 10 a2 a1 3b b4 04 f2 3b
       0.05988793 0.035376552 0.0049326494 0.0073858146
000020 d8 35 23 3e ea 25 22 bc 90 d5 e2 3d 68 ed d9 3d
       0.15938509 -0.009896735 0.1107589 0.10640985
000030 ac a6 ea bc bb de c5 3c 56 6d 04 bd 9a 21 e0 3c
       -0.028643928 0.024154058 -0.032330833 0.027359772
000040 a4 03 33 3d b0 bf f0 3b 6f b6 3a 3d b8 54 25 3d
       0.043704644 0.0073470697 0.04558414 0.040363997
000050 6c 35 38 bd 75 bf 12 3c 5e 1c c6 3d b3 5a cd bb
       -0.044972822 0.00895678 0.09673379 -0.0062669157
000060 39 7a 9f bc 87 34 be bc 7e f0 0c 3e bb db 2c 3d
       -0.01946746 -0.023218406 0.13763615 0.04220174
000070 99 b7 ce 3c a4 c5 11 3d e0 b2 a6 ba 88 bb 4b 3e
       0.02523403 0.035588875 -0.0012718104 0.19895756
000080 24 82 08 3c e9 ba c3 3e 92 6e 95 bc 00 ba 9e bc
       0.008331809 0.3822854 -0.0182412 -0.019375801
000090 01 1d e0 bc c6 4d d6 3c 4e d4 bd bc 8e 80 b3 3c
       -0.02735758 0.026160132 -0.023172524 0.021911886
0000a0 a2 e1 d9 bc 5c ea 1f bc 51 d5 b0 3b 9c a0 a2 3d
       -0.026596848 -0.0097604655 0.005396523 0.0794079
0000b0 e2 91 d6 3c d8 dd 47 3d 5c cf 8a 3b 87 e9 ca 3d
       0.02619261 0.04879555 0.004236145 0.09907823
0000c0 3e fe 19 3d 92 46 96 bc 5e 2c db bb 6a 9a d6 bb
       0.03759598 -0.018344197 -0.0066886386 -0.0065491693
0000d0 9e d7 aa bc e2 1c fe 3d 6a 92 ca bc 78 f5 28 3d
       -0.020854767 0.12407853 -0.024728019 0.041249722
0000e0 bc 0e 9b 3c a4 ec 8f bc 18 a5 9d 3c ea ae f1 3e
       0.018927924 -0.017568894 0.019243762 0.4720376
0000f0 c2 d6 8a 3f 3e 06 ec bc 2f 24 18 3e 54 5e e9 3d
       1.0846789 -0.02881157 0.14857553 0.11394945
000100 20 75 39 3d 51 77 13 3d d2 e7 8b 3c ce 46 49 3d
       0.045277715 0.03600246 0.017078314 0.04913979
000110 28 90 de bb 78 b2 1a 3e bf 8c 1b bc 25 65 1c 3d
       -0.006792087 0.15107143 -0.009494006 0.038182396
000120 c3 d5 5e 3d 68 8a e3 3b 36 38 49 3d 4a 67 fa bc
       0.054403078 0.0069439895 0.049125873 -0.03056683
000130 20 53 b9 b9 c4 54 a9 3d cd b0 02 3d f5 04 55 bd
       -0.00035347883 0.08268121 0.03190689 -0.05200668
000140 79 ab 31 3f 15 62 d6 3c e8 4c 1a 3d 19 cd 1b 3e
       0.6940227 0.026169816 0.037671 0.15214957
000150 74 8d f2 3d 45 10 94 3d aa c5 03 3d a6 72 bd bc
       0.11843386 0.07229666 0.03217093 -0.023125958
000160 18 8a a0 bc 32 22 fc bc 48 14 e4 3d 85 10 da 3c
       -0.019597098 -0.030778024 0.11136681 0.026619205
000170 28 8e cc bc 54 9c 22 3d b4 3e ed ba fe 4f 0c 3c
       -0.02497013 0.039699867 -0.0018100352 0.0085639935
000180 ef b1 15 bd dc 8a 2d 3d c8 d2 24 3d 18 96 ab 3e
       -0.036546644 0.042368755 0.04024008 0.3351295
000190 fc c1 b5 bb ff 46 94 3c 64 21 63 3c c2 cf e2 bc
       -0.0055468064 0.01810026 0.013862941 -0.027686957
0001a0 45 0b ca 3e 83 a7 4a 3f 83 53 22 bd 9d ae 55 3d
       0.39461723 0.7916185 -0.039630424 0.052168477
0001b0 c2 6f 10 3f ae 38 57 3d d4 46 38 3c a6 47 06 3d
       0.5642053 0.05254429 0.0112473555 0.032783173
0001c0 c8 d4 a1 3e c4 42 b6 3d a4 1c be 3d ac ac 16 3b
       0.31607652 0.08899453 0.092828065 0.0022991104
0001d0 5e 00 71 bb 88 65 9b 3d 96 18 16 3e c3 18 91 3d
       -0.00367739 0.07587725 0.14657816 0.07084801
0001e0 20 5f 87 3a 95 17 4b 3d e3 24 6b 3e 76 02 10 bc
       0.0010328032 0.049583036 0.2296329 -0.008789649
0001f0 ec a9 8c bc 27 c2 d8 bc 74 c9 21 3c cc 92 81 bc
       -0.017170869 -0.026459767 0.00987469 -0.015817069
000200 aa f7 e6 3b 36 34 4e 3d 2f ac c1 3c ff 3d 98 3d
       0.007048567 0.05034276 0.023641674 0.074337
000210 e4 3f 3b 3d 44 60 e4 bc 18 21 ea ba e8 a5 37 bd
       0.045715228 -0.027877934 -0.0017862646 -0.044835955
000220 1a 4e 65 3d 29 71 c0 bc 48 be 5a 3b 3a 7c b4 3c
       0.055982687 -0.023491459 0.0033377577 0.022031892
000230 90 ee c0 3c 03 15 a2 bc c5 fc d9 bc de 7a 1d bc
       0.023551255 -0.01978541 -0.026609788 -0.009611813
000240 2e d1 b4 3d 84 d4 3f bd 25 78 06 3d 11 98 84 3c
       0.0882896 -0.04683353 0.032829423 0.016185792
000250 d9 4b 6d 3e d7 37 1d 3d fe 8a c9 3c d4 0a 17 3d
       0.23173465 0.03838333 0.02460241 0.03687556
000260 33 eb 32 bd e2 35 b5 3d 80 69 fc bc 7f 10 0e 3d
       -0.043681335 0.08848168 -0.030812025 0.0346837
000270 7a 5c 70 3d e5 88 58 bc 4a da 69 3c 62 e2 8b 3d
       0.058681943 -0.013216232 0.014273236 0.068302885
000280 2d 16 da bc 25 cd b7 bc 19 4c 6c 3e c2 3f 8f 3d
       -0.026621902 -0.022436688 0.23075904 0.06994583
000290 24 00 08 3c 10 ed 38 3d 54 19 00 3d a1 d3 bd 3e
       0.008300815 0.045147955 0.031274155 0.37075523
0002a0 b1 0c 09 bc 4e ae 2d 3d 56 a1 db 3c 94 86 4e 3d
       -0.008364842 0.042402558 0.02681033 0.050421312
0002b0 f6 8d d0 3e fe 5a 52 bc 89 dd 2e 3d 36 02 23 3d
       0.40733308 -0.012839077 0.04269174 0.03979703
0002c0 41 e8 be bc 08 1a eb 3d ae 41 1f 3c 94 59 04 3c
       -0.023304107 0.114795744 0.009720249 0.008077998
0002d0 85 79 b6 3e ac db 38 3c 2c ab 0a 3d ba 26 c6 3d
       0.35639587 0.011282843 0.03385465 0.09675355
0002e0 0b bd 47 3b b4 e0 76 3d 9a 0e bc 3d 0f 2a 53 3e
       0.0030477669 0.060272887 0.091824725 0.20621513
0002f0 7e 98 21 3d 66 ca 65 3d cd 04 43 3d 77 d1 19 3d
       0.03945207 0.056101225 0.047612 0.037553277
000300 42 73 89 3c fd a0 99 3d 76 11 ff 3c f4 ab e9 3b
       0.016778592 0.07501409 0.031136256 0.007131094
000310 6c c8 0f 3e ee 50 60 3d f8 6b 55 3d 40 18 6d 3d
       0.14041299 0.05476468 0.05210492 0.057884455
000320 bf 15 0e 3e c9 49 c9 3c a0 bd 4e bc 60 53 b1 3a
       0.13875483 0.024571316 -0.012618452 0.0013528876
000330 50 2a 23 3e b8 25 a4 3d 21 c6 dd 3b bc 80 09 bb
       0.1593411 0.08015007 0.0067680036 -0.0020981273
000340 40 ce d4 3c e0 59 e0 bb da cf 37 3e c0 66 51 3f
       0.025977254 -0.0068466514 0.17950383 0.8179741
000350 58 e8 f1 3d 1d 9f c9 bc 78 4e 0a bd 8b 35 56 bc
       0.11811894 -0.024612004 -0.03376624 -0.013074289
000360 bf a1 97 3e 54 a1 d2 3d 68 00 1c 3e 45 48 d8 bc
       0.2961559 0.10284677 0.1523453 -0.026401648
000370 72 22 e9 3d ba 25 1c 3d 58 e1 af 3c 6d 00 a0 3d
       0.11383523 0.038121916 0.021469757 0.07812581
000380 45 86 45 bd f8 41 43 3d d9 94 3c 3e a0 5a 6f 3b
       -0.048223753 0.047670335 0.18416156 0.0036522523
000390 c7 2e 2c bd c9 91 64 3d 5a 6e ce 3c fa 1e 8c 3b
       -0.042036798 0.055803094 0.025199104 0.0042761536
0003a0 26 ad ab bc 13 47 f3 3c b8 36 67 3e 88 91 d2 3e
       -0.020956587 0.029696977 0.22579467 0.41126657
0003b0 37 f6 11 3d c4 9f 62 3d 03 9d 3d 3e 76 68 a1 3c
       0.0356352 0.055328146 0.18516926 0.019703131
0003c0 f1 54 34 3d 66 88 86 bc f7 4f 46 3d 46 a4 5d bc
       0.04402632 -0.016422462 0.048416104 -0.013527935
0003d0 95 70 d0 bc 25 62 24 3e 68 13 a2 3c d1 98 91 bc
       -0.025444308 0.16053064 0.019784644 -0.017773064
0003e0 28 77 69 bc 17 50 ae bc 8a 8b 8a 3d f9 83 e9 3c
       -0.0142496005 -0.021278424 0.06764896 0.028505312
0003f0 f5 15 20 3d 23 c7 b0 bc 74 35 7a 3e 2f b4 7c bc
       0.03908344 -0.02157933 0.24434453 -0.0154238185
